{"format": "graph-model", "generatedBy": "2.18.0", "convertedBy": "TensorFlow.js Converter v4.22.0", "signature": {"inputs": {"inputs": {"name": "inputs:0", "dtype": "DT_FLOAT", "tensorShape": {"dim": [{"size": "-1"}, {"size": "299"}, {"size": "299"}, {"size": "3"}]}}}, "outputs": {"output_0": {"name": "Identity:0", "dtype": "DT_FLOAT", "tensorShape": {"dim": [{"size": "-1"}, {"size": "4"}]}}}}, "modelTopology": {"node": [{"name": "StatefulPartitionedCall/sequential_1/xception_1/block13_sepconv1_1/separable_conv2d/ReadVariableOp", "op": "Const", "attr": {"value": {"tensor": {"dtype": "DT_FLOAT", "tensorShape": {"dim": [{"size": "3"}, {"size": "3"}, {"size": "728"}, {"size": "1"}]}}}, "dtype": {"type": "DT_FLOAT"}}}, {"name": "StatefulPartitionedCall/sequential_1/xception_1/block13_sepconv1_1/separable_conv2d/merged_input", "op": "Const", "attr": {"value": {"tensor": {"dtype": "DT_FLOAT", "tensorShape": {"dim": [{"size": "1"}, {"size": "1"}, {"size": "728"}, {"size": "728"}]}}}, "dtype": {"type": "DT_FLOAT"}}}, {"name": "StatefulPartitionedCall/sequential_1/xception_1/block13_sepconv1_bn_1/batchnorm/sub", "op": "Const", "attr": {"dtype": {"type": "DT_FLOAT"}, "value": {"tensor": {"dtype": "DT_FLOAT", "tensorShape": {"dim": [{"size": "728"}]}}}}}, {"name": "StatefulPartitionedCall/sequential_1/xception_1/block13_sepconv2_1/separable_conv2d/ReadVariableOp", "op": "Const", "attr": {"dtype": {"type": "DT_FLOAT"}, "value": {"tensor": {"dtype": "DT_FLOAT", "tensorShape": {"dim": [{"size": "3"}, {"size": "3"}, {"size": "728"}, {"size": "1"}]}}}}}, {"name": "StatefulPartitionedCall/sequential_1/xception_1/block13_sepconv2_1/separable_conv2d/merged_input", "op": "Const", "attr": {"dtype": {"type": "DT_FLOAT"}, "value": {"tensor": {"dtype": "DT_FLOAT", "tensorShape": {"dim": [{"size": "1"}, {"size": "1"}, {"size": "728"}, {"size": "1024"}]}}}}}, {"name": "StatefulPartitionedCall/sequential_1/xception_1/block13_sepconv2_bn_1/batchnorm/sub", "op": "Const", "attr": {"value": {"tensor": {"dtype": "DT_FLOAT", "tensorShape": {"dim": [{"size": "1024"}]}}}, "dtype": {"type": "DT_FLOAT"}}}, {"name": "StatefulPartitionedCall/sequential_1/xception_1/block12_sepconv1_1/separable_conv2d/ReadVariableOp", "op": "Const", "attr": {"value": {"tensor": {"dtype": "DT_FLOAT", "tensorShape": {"dim": [{"size": "3"}, {"size": "3"}, {"size": "728"}, {"size": "1"}]}}}, "dtype": {"type": "DT_FLOAT"}}}, {"name": "StatefulPartitionedCall/sequential_1/xception_1/block12_sepconv1_1/separable_conv2d/merged_input", "op": "Const", "attr": {"value": {"tensor": {"dtype": "DT_FLOAT", "tensorShape": {"dim": [{"size": "1"}, {"size": "1"}, {"size": "728"}, {"size": "728"}]}}}, "dtype": {"type": "DT_FLOAT"}}}, {"name": "StatefulPartitionedCall/sequential_1/xception_1/block12_sepconv1_bn_1/batchnorm/sub", "op": "Const", "attr": {"dtype": {"type": "DT_FLOAT"}, "value": {"tensor": {"dtype": "DT_FLOAT", "tensorShape": {"dim": [{"size": "728"}]}}}}}, {"name": "StatefulPartitionedCall/sequential_1/xception_1/block12_sepconv2_1/separable_conv2d/ReadVariableOp", "op": "Const", "attr": {"value": {"tensor": {"dtype": "DT_FLOAT", "tensorShape": {"dim": [{"size": "3"}, {"size": "3"}, {"size": "728"}, {"size": "1"}]}}}, "dtype": {"type": "DT_FLOAT"}}}, {"name": "StatefulPartitionedCall/sequential_1/xception_1/block12_sepconv2_1/separable_conv2d/merged_input", "op": "Const", "attr": {"value": {"tensor": {"dtype": "DT_FLOAT", "tensorShape": {"dim": [{"size": "1"}, {"size": "1"}, {"size": "728"}, {"size": "728"}]}}}, "dtype": {"type": "DT_FLOAT"}}}, {"name": "StatefulPartitionedCall/sequential_1/xception_1/block12_sepconv2_bn_1/batchnorm/sub", "op": "Const", "attr": {"value": {"tensor": {"dtype": "DT_FLOAT", "tensorShape": {"dim": [{"size": "728"}]}}}, "dtype": {"type": "DT_FLOAT"}}}, {"name": "StatefulPartitionedCall/sequential_1/xception_1/block12_sepconv3_1/separable_conv2d/ReadVariableOp", "op": "Const", "attr": {"dtype": {"type": "DT_FLOAT"}, "value": {"tensor": {"dtype": "DT_FLOAT", "tensorShape": {"dim": [{"size": "3"}, {"size": "3"}, {"size": "728"}, {"size": "1"}]}}}}}, {"name": "StatefulPartitionedCall/sequential_1/xception_1/block12_sepconv3_1/separable_conv2d/merged_input", "op": "Const", "attr": {"dtype": {"type": "DT_FLOAT"}, "value": {"tensor": {"dtype": "DT_FLOAT", "tensorShape": {"dim": [{"size": "1"}, {"size": "1"}, {"size": "728"}, {"size": "728"}]}}}}}, {"name": "StatefulPartitionedCall/sequential_1/xception_1/block12_sepconv3_bn_1/batchnorm/sub", "op": "Const", "attr": {"value": {"tensor": {"dtype": "DT_FLOAT", "tensorShape": {"dim": [{"size": "728"}]}}}, "dtype": {"type": "DT_FLOAT"}}}, {"name": "StatefulPartitionedCall/sequential_1/xception_1/block11_sepconv1_1/separable_conv2d/ReadVariableOp", "op": "Const", "attr": {"dtype": {"type": "DT_FLOAT"}, "value": {"tensor": {"dtype": "DT_FLOAT", "tensorShape": {"dim": [{"size": "3"}, {"size": "3"}, {"size": "728"}, {"size": "1"}]}}}}}, {"name": "StatefulPartitionedCall/sequential_1/xception_1/block11_sepconv1_1/separable_conv2d/merged_input", "op": "Const", "attr": {"dtype": {"type": "DT_FLOAT"}, "value": {"tensor": {"dtype": "DT_FLOAT", "tensorShape": {"dim": [{"size": "1"}, {"size": "1"}, {"size": "728"}, {"size": "728"}]}}}}}, {"name": "StatefulPartitionedCall/sequential_1/xception_1/block11_sepconv1_bn_1/batchnorm/sub", "op": "Const", "attr": {"value": {"tensor": {"dtype": "DT_FLOAT", "tensorShape": {"dim": [{"size": "728"}]}}}, "dtype": {"type": "DT_FLOAT"}}}, {"name": "StatefulPartitionedCall/sequential_1/xception_1/block11_sepconv2_1/separable_conv2d/ReadVariableOp", "op": "Const", "attr": {"value": {"tensor": {"dtype": "DT_FLOAT", "tensorShape": {"dim": [{"size": "3"}, {"size": "3"}, {"size": "728"}, {"size": "1"}]}}}, "dtype": {"type": "DT_FLOAT"}}}, {"name": "StatefulPartitionedCall/sequential_1/xception_1/block11_sepconv2_1/separable_conv2d/merged_input", "op": "Const", "attr": {"dtype": {"type": "DT_FLOAT"}, "value": {"tensor": {"dtype": "DT_FLOAT", "tensorShape": {"dim": [{"size": "1"}, {"size": "1"}, {"size": "728"}, {"size": "728"}]}}}}}, {"name": "StatefulPartitionedCall/sequential_1/xception_1/block11_sepconv2_bn_1/batchnorm/sub", "op": "Const", "attr": {"value": {"tensor": {"dtype": "DT_FLOAT", "tensorShape": {"dim": [{"size": "728"}]}}}, "dtype": {"type": "DT_FLOAT"}}}, {"name": "StatefulPartitionedCall/sequential_1/xception_1/block11_sepconv3_1/separable_conv2d/ReadVariableOp", "op": "Const", "attr": {"dtype": {"type": "DT_FLOAT"}, "value": {"tensor": {"dtype": "DT_FLOAT", "tensorShape": {"dim": [{"size": "3"}, {"size": "3"}, {"size": "728"}, {"size": "1"}]}}}}}, {"name": "StatefulPartitionedCall/sequential_1/xception_1/block11_sepconv3_1/separable_conv2d/merged_input", "op": "Const", "attr": {"value": {"tensor": {"dtype": "DT_FLOAT", "tensorShape": {"dim": [{"size": "1"}, {"size": "1"}, {"size": "728"}, {"size": "728"}]}}}, "dtype": {"type": "DT_FLOAT"}}}, {"name": "StatefulPartitionedCall/sequential_1/xception_1/block11_sepconv3_bn_1/batchnorm/sub", "op": "Const", "attr": {"dtype": {"type": "DT_FLOAT"}, "value": {"tensor": {"dtype": "DT_FLOAT", "tensorShape": {"dim": [{"size": "728"}]}}}}}, {"name": "StatefulPartitionedCall/sequential_1/xception_1/block10_sepconv1_1/separable_conv2d/ReadVariableOp", "op": "Const", "attr": {"dtype": {"type": "DT_FLOAT"}, "value": {"tensor": {"dtype": "DT_FLOAT", "tensorShape": {"dim": [{"size": "3"}, {"size": "3"}, {"size": "728"}, {"size": "1"}]}}}}}, {"name": "StatefulPartitionedCall/sequential_1/xception_1/block10_sepconv1_1/separable_conv2d/merged_input", "op": "Const", "attr": {"value": {"tensor": {"dtype": "DT_FLOAT", "tensorShape": {"dim": [{"size": "1"}, {"size": "1"}, {"size": "728"}, {"size": "728"}]}}}, "dtype": {"type": "DT_FLOAT"}}}, {"name": "StatefulPartitionedCall/sequential_1/xception_1/block10_sepconv1_bn_1/batchnorm/sub", "op": "Const", "attr": {"value": {"tensor": {"dtype": "DT_FLOAT", "tensorShape": {"dim": [{"size": "728"}]}}}, "dtype": {"type": "DT_FLOAT"}}}, {"name": "StatefulPartitionedCall/sequential_1/xception_1/block10_sepconv2_1/separable_conv2d/ReadVariableOp", "op": "Const", "attr": {"value": {"tensor": {"dtype": "DT_FLOAT", "tensorShape": {"dim": [{"size": "3"}, {"size": "3"}, {"size": "728"}, {"size": "1"}]}}}, "dtype": {"type": "DT_FLOAT"}}}, {"name": "StatefulPartitionedCall/sequential_1/xception_1/block10_sepconv2_1/separable_conv2d/merged_input", "op": "Const", "attr": {"dtype": {"type": "DT_FLOAT"}, "value": {"tensor": {"dtype": "DT_FLOAT", "tensorShape": {"dim": [{"size": "1"}, {"size": "1"}, {"size": "728"}, {"size": "728"}]}}}}}, {"name": "StatefulPartitionedCall/sequential_1/xception_1/block10_sepconv2_bn_1/batchnorm/sub", "op": "Const", "attr": {"dtype": {"type": "DT_FLOAT"}, "value": {"tensor": {"dtype": "DT_FLOAT", "tensorShape": {"dim": [{"size": "728"}]}}}}}, {"name": "StatefulPartitionedCall/sequential_1/xception_1/block10_sepconv3_1/separable_conv2d/ReadVariableOp", "op": "Const", "attr": {"value": {"tensor": {"dtype": "DT_FLOAT", "tensorShape": {"dim": [{"size": "3"}, {"size": "3"}, {"size": "728"}, {"size": "1"}]}}}, "dtype": {"type": "DT_FLOAT"}}}, {"name": "StatefulPartitionedCall/sequential_1/xception_1/block10_sepconv3_1/separable_conv2d/merged_input", "op": "Const", "attr": {"dtype": {"type": "DT_FLOAT"}, "value": {"tensor": {"dtype": "DT_FLOAT", "tensorShape": {"dim": [{"size": "1"}, {"size": "1"}, {"size": "728"}, {"size": "728"}]}}}}}, {"name": "StatefulPartitionedCall/sequential_1/xception_1/block10_sepconv3_bn_1/batchnorm/sub", "op": "Const", "attr": {"dtype": {"type": "DT_FLOAT"}, "value": {"tensor": {"dtype": "DT_FLOAT", "tensorShape": {"dim": [{"size": "728"}]}}}}}, {"name": "StatefulPartitionedCall/sequential_1/xception_1/block9_sepconv1_1/separable_conv2d/ReadVariableOp", "op": "Const", "attr": {"dtype": {"type": "DT_FLOAT"}, "value": {"tensor": {"dtype": "DT_FLOAT", "tensorShape": {"dim": [{"size": "3"}, {"size": "3"}, {"size": "728"}, {"size": "1"}]}}}}}, {"name": "StatefulPartitionedCall/sequential_1/xception_1/block9_sepconv1_1/separable_conv2d/merged_input", "op": "Const", "attr": {"dtype": {"type": "DT_FLOAT"}, "value": {"tensor": {"dtype": "DT_FLOAT", "tensorShape": {"dim": [{"size": "1"}, {"size": "1"}, {"size": "728"}, {"size": "728"}]}}}}}, {"name": "StatefulPartitionedCall/sequential_1/xception_1/block9_sepconv1_bn_1/batchnorm/sub", "op": "Const", "attr": {"value": {"tensor": {"dtype": "DT_FLOAT", "tensorShape": {"dim": [{"size": "728"}]}}}, "dtype": {"type": "DT_FLOAT"}}}, {"name": "StatefulPartitionedCall/sequential_1/xception_1/block9_sepconv2_1/separable_conv2d/ReadVariableOp", "op": "Const", "attr": {"value": {"tensor": {"dtype": "DT_FLOAT", "tensorShape": {"dim": [{"size": "3"}, {"size": "3"}, {"size": "728"}, {"size": "1"}]}}}, "dtype": {"type": "DT_FLOAT"}}}, {"name": "StatefulPartitionedCall/sequential_1/xception_1/block9_sepconv2_1/separable_conv2d/merged_input", "op": "Const", "attr": {"value": {"tensor": {"dtype": "DT_FLOAT", "tensorShape": {"dim": [{"size": "1"}, {"size": "1"}, {"size": "728"}, {"size": "728"}]}}}, "dtype": {"type": "DT_FLOAT"}}}, {"name": "StatefulPartitionedCall/sequential_1/xception_1/block9_sepconv2_bn_1/batchnorm/sub", "op": "Const", "attr": {"value": {"tensor": {"dtype": "DT_FLOAT", "tensorShape": {"dim": [{"size": "728"}]}}}, "dtype": {"type": "DT_FLOAT"}}}, {"name": "StatefulPartitionedCall/sequential_1/xception_1/block9_sepconv3_1/separable_conv2d/ReadVariableOp", "op": "Const", "attr": {"value": {"tensor": {"dtype": "DT_FLOAT", "tensorShape": {"dim": [{"size": "3"}, {"size": "3"}, {"size": "728"}, {"size": "1"}]}}}, "dtype": {"type": "DT_FLOAT"}}}, {"name": "StatefulPartitionedCall/sequential_1/xception_1/block9_sepconv3_1/separable_conv2d/merged_input", "op": "Const", "attr": {"value": {"tensor": {"dtype": "DT_FLOAT", "tensorShape": {"dim": [{"size": "1"}, {"size": "1"}, {"size": "728"}, {"size": "728"}]}}}, "dtype": {"type": "DT_FLOAT"}}}, {"name": "StatefulPartitionedCall/sequential_1/xception_1/block9_sepconv3_bn_1/batchnorm/sub", "op": "Const", "attr": {"value": {"tensor": {"dtype": "DT_FLOAT", "tensorShape": {"dim": [{"size": "728"}]}}}, "dtype": {"type": "DT_FLOAT"}}}, {"name": "StatefulPartitionedCall/sequential_1/xception_1/block8_sepconv1_1/separable_conv2d/ReadVariableOp", "op": "Const", "attr": {"dtype": {"type": "DT_FLOAT"}, "value": {"tensor": {"dtype": "DT_FLOAT", "tensorShape": {"dim": [{"size": "3"}, {"size": "3"}, {"size": "728"}, {"size": "1"}]}}}}}, {"name": "StatefulPartitionedCall/sequential_1/xception_1/block8_sepconv1_1/separable_conv2d/merged_input", "op": "Const", "attr": {"dtype": {"type": "DT_FLOAT"}, "value": {"tensor": {"dtype": "DT_FLOAT", "tensorShape": {"dim": [{"size": "1"}, {"size": "1"}, {"size": "728"}, {"size": "728"}]}}}}}, {"name": "StatefulPartitionedCall/sequential_1/xception_1/block8_sepconv1_bn_1/batchnorm/sub", "op": "Const", "attr": {"value": {"tensor": {"dtype": "DT_FLOAT", "tensorShape": {"dim": [{"size": "728"}]}}}, "dtype": {"type": "DT_FLOAT"}}}, {"name": "StatefulPartitionedCall/sequential_1/xception_1/block8_sepconv2_1/separable_conv2d/ReadVariableOp", "op": "Const", "attr": {"dtype": {"type": "DT_FLOAT"}, "value": {"tensor": {"dtype": "DT_FLOAT", "tensorShape": {"dim": [{"size": "3"}, {"size": "3"}, {"size": "728"}, {"size": "1"}]}}}}}, {"name": "StatefulPartitionedCall/sequential_1/xception_1/block8_sepconv2_1/separable_conv2d/merged_input", "op": "Const", "attr": {"value": {"tensor": {"dtype": "DT_FLOAT", "tensorShape": {"dim": [{"size": "1"}, {"size": "1"}, {"size": "728"}, {"size": "728"}]}}}, "dtype": {"type": "DT_FLOAT"}}}, {"name": "StatefulPartitionedCall/sequential_1/xception_1/block8_sepconv2_bn_1/batchnorm/sub", "op": "Const", "attr": {"dtype": {"type": "DT_FLOAT"}, "value": {"tensor": {"dtype": "DT_FLOAT", "tensorShape": {"dim": [{"size": "728"}]}}}}}, {"name": "StatefulPartitionedCall/sequential_1/xception_1/block8_sepconv3_1/separable_conv2d/ReadVariableOp", "op": "Const", "attr": {"dtype": {"type": "DT_FLOAT"}, "value": {"tensor": {"dtype": "DT_FLOAT", "tensorShape": {"dim": [{"size": "3"}, {"size": "3"}, {"size": "728"}, {"size": "1"}]}}}}}, {"name": "StatefulPartitionedCall/sequential_1/xception_1/block8_sepconv3_1/separable_conv2d/merged_input", "op": "Const", "attr": {"dtype": {"type": "DT_FLOAT"}, "value": {"tensor": {"dtype": "DT_FLOAT", "tensorShape": {"dim": [{"size": "1"}, {"size": "1"}, {"size": "728"}, {"size": "728"}]}}}}}, {"name": "StatefulPartitionedCall/sequential_1/xception_1/block8_sepconv3_bn_1/batchnorm/sub", "op": "Const", "attr": {"value": {"tensor": {"dtype": "DT_FLOAT", "tensorShape": {"dim": [{"size": "728"}]}}}, "dtype": {"type": "DT_FLOAT"}}}, {"name": "StatefulPartitionedCall/sequential_1/xception_1/block7_sepconv1_1/separable_conv2d/ReadVariableOp", "op": "Const", "attr": {"value": {"tensor": {"dtype": "DT_FLOAT", "tensorShape": {"dim": [{"size": "3"}, {"size": "3"}, {"size": "728"}, {"size": "1"}]}}}, "dtype": {"type": "DT_FLOAT"}}}, {"name": "StatefulPartitionedCall/sequential_1/xception_1/block7_sepconv1_1/separable_conv2d/merged_input", "op": "Const", "attr": {"value": {"tensor": {"dtype": "DT_FLOAT", "tensorShape": {"dim": [{"size": "1"}, {"size": "1"}, {"size": "728"}, {"size": "728"}]}}}, "dtype": {"type": "DT_FLOAT"}}}, {"name": "StatefulPartitionedCall/sequential_1/xception_1/block7_sepconv1_bn_1/batchnorm/sub", "op": "Const", "attr": {"value": {"tensor": {"dtype": "DT_FLOAT", "tensorShape": {"dim": [{"size": "728"}]}}}, "dtype": {"type": "DT_FLOAT"}}}, {"name": "StatefulPartitionedCall/sequential_1/xception_1/block7_sepconv2_1/separable_conv2d/ReadVariableOp", "op": "Const", "attr": {"dtype": {"type": "DT_FLOAT"}, "value": {"tensor": {"dtype": "DT_FLOAT", "tensorShape": {"dim": [{"size": "3"}, {"size": "3"}, {"size": "728"}, {"size": "1"}]}}}}}, {"name": "StatefulPartitionedCall/sequential_1/xception_1/block7_sepconv2_1/separable_conv2d/merged_input", "op": "Const", "attr": {"dtype": {"type": "DT_FLOAT"}, "value": {"tensor": {"dtype": "DT_FLOAT", "tensorShape": {"dim": [{"size": "1"}, {"size": "1"}, {"size": "728"}, {"size": "728"}]}}}}}, {"name": "StatefulPartitionedCall/sequential_1/xception_1/block7_sepconv2_bn_1/batchnorm/sub", "op": "Const", "attr": {"dtype": {"type": "DT_FLOAT"}, "value": {"tensor": {"dtype": "DT_FLOAT", "tensorShape": {"dim": [{"size": "728"}]}}}}}, {"name": "StatefulPartitionedCall/sequential_1/xception_1/block7_sepconv3_1/separable_conv2d/ReadVariableOp", "op": "Const", "attr": {"dtype": {"type": "DT_FLOAT"}, "value": {"tensor": {"dtype": "DT_FLOAT", "tensorShape": {"dim": [{"size": "3"}, {"size": "3"}, {"size": "728"}, {"size": "1"}]}}}}}, {"name": "StatefulPartitionedCall/sequential_1/xception_1/block7_sepconv3_1/separable_conv2d/merged_input", "op": "Const", "attr": {"dtype": {"type": "DT_FLOAT"}, "value": {"tensor": {"dtype": "DT_FLOAT", "tensorShape": {"dim": [{"size": "1"}, {"size": "1"}, {"size": "728"}, {"size": "728"}]}}}}}, {"name": "StatefulPartitionedCall/sequential_1/xception_1/block7_sepconv3_bn_1/batchnorm/sub", "op": "Const", "attr": {"dtype": {"type": "DT_FLOAT"}, "value": {"tensor": {"dtype": "DT_FLOAT", "tensorShape": {"dim": [{"size": "728"}]}}}}}, {"name": "StatefulPartitionedCall/sequential_1/xception_1/block6_sepconv1_1/separable_conv2d/ReadVariableOp", "op": "Const", "attr": {"dtype": {"type": "DT_FLOAT"}, "value": {"tensor": {"dtype": "DT_FLOAT", "tensorShape": {"dim": [{"size": "3"}, {"size": "3"}, {"size": "728"}, {"size": "1"}]}}}}}, {"name": "StatefulPartitionedCall/sequential_1/xception_1/block6_sepconv1_1/separable_conv2d/merged_input", "op": "Const", "attr": {"value": {"tensor": {"dtype": "DT_FLOAT", "tensorShape": {"dim": [{"size": "1"}, {"size": "1"}, {"size": "728"}, {"size": "728"}]}}}, "dtype": {"type": "DT_FLOAT"}}}, {"name": "StatefulPartitionedCall/sequential_1/xception_1/block6_sepconv1_bn_1/batchnorm/sub", "op": "Const", "attr": {"value": {"tensor": {"dtype": "DT_FLOAT", "tensorShape": {"dim": [{"size": "728"}]}}}, "dtype": {"type": "DT_FLOAT"}}}, {"name": "StatefulPartitionedCall/sequential_1/xception_1/block6_sepconv2_1/separable_conv2d/ReadVariableOp", "op": "Const", "attr": {"value": {"tensor": {"dtype": "DT_FLOAT", "tensorShape": {"dim": [{"size": "3"}, {"size": "3"}, {"size": "728"}, {"size": "1"}]}}}, "dtype": {"type": "DT_FLOAT"}}}, {"name": "StatefulPartitionedCall/sequential_1/xception_1/block6_sepconv2_1/separable_conv2d/merged_input", "op": "Const", "attr": {"dtype": {"type": "DT_FLOAT"}, "value": {"tensor": {"dtype": "DT_FLOAT", "tensorShape": {"dim": [{"size": "1"}, {"size": "1"}, {"size": "728"}, {"size": "728"}]}}}}}, {"name": "StatefulPartitionedCall/sequential_1/xception_1/block6_sepconv2_bn_1/batchnorm/sub", "op": "Const", "attr": {"value": {"tensor": {"dtype": "DT_FLOAT", "tensorShape": {"dim": [{"size": "728"}]}}}, "dtype": {"type": "DT_FLOAT"}}}, {"name": "StatefulPartitionedCall/sequential_1/xception_1/block6_sepconv3_1/separable_conv2d/ReadVariableOp", "op": "Const", "attr": {"value": {"tensor": {"dtype": "DT_FLOAT", "tensorShape": {"dim": [{"size": "3"}, {"size": "3"}, {"size": "728"}, {"size": "1"}]}}}, "dtype": {"type": "DT_FLOAT"}}}, {"name": "StatefulPartitionedCall/sequential_1/xception_1/block6_sepconv3_1/separable_conv2d/merged_input", "op": "Const", "attr": {"dtype": {"type": "DT_FLOAT"}, "value": {"tensor": {"dtype": "DT_FLOAT", "tensorShape": {"dim": [{"size": "1"}, {"size": "1"}, {"size": "728"}, {"size": "728"}]}}}}}, {"name": "StatefulPartitionedCall/sequential_1/xception_1/block6_sepconv3_bn_1/batchnorm/sub", "op": "Const", "attr": {"value": {"tensor": {"dtype": "DT_FLOAT", "tensorShape": {"dim": [{"size": "728"}]}}}, "dtype": {"type": "DT_FLOAT"}}}, {"name": "StatefulPartitionedCall/sequential_1/xception_1/block5_sepconv1_1/separable_conv2d/ReadVariableOp", "op": "Const", "attr": {"dtype": {"type": "DT_FLOAT"}, "value": {"tensor": {"dtype": "DT_FLOAT", "tensorShape": {"dim": [{"size": "3"}, {"size": "3"}, {"size": "728"}, {"size": "1"}]}}}}}, {"name": "StatefulPartitionedCall/sequential_1/xception_1/block5_sepconv1_1/separable_conv2d/merged_input", "op": "Const", "attr": {"dtype": {"type": "DT_FLOAT"}, "value": {"tensor": {"dtype": "DT_FLOAT", "tensorShape": {"dim": [{"size": "1"}, {"size": "1"}, {"size": "728"}, {"size": "728"}]}}}}}, {"name": "StatefulPartitionedCall/sequential_1/xception_1/block5_sepconv1_bn_1/batchnorm/sub", "op": "Const", "attr": {"dtype": {"type": "DT_FLOAT"}, "value": {"tensor": {"dtype": "DT_FLOAT", "tensorShape": {"dim": [{"size": "728"}]}}}}}, {"name": "StatefulPartitionedCall/sequential_1/xception_1/block5_sepconv2_1/separable_conv2d/ReadVariableOp", "op": "Const", "attr": {"dtype": {"type": "DT_FLOAT"}, "value": {"tensor": {"dtype": "DT_FLOAT", "tensorShape": {"dim": [{"size": "3"}, {"size": "3"}, {"size": "728"}, {"size": "1"}]}}}}}, {"name": "StatefulPartitionedCall/sequential_1/xception_1/block5_sepconv2_1/separable_conv2d/merged_input", "op": "Const", "attr": {"value": {"tensor": {"dtype": "DT_FLOAT", "tensorShape": {"dim": [{"size": "1"}, {"size": "1"}, {"size": "728"}, {"size": "728"}]}}}, "dtype": {"type": "DT_FLOAT"}}}, {"name": "StatefulPartitionedCall/sequential_1/xception_1/block5_sepconv2_bn_1/batchnorm/sub", "op": "Const", "attr": {"value": {"tensor": {"dtype": "DT_FLOAT", "tensorShape": {"dim": [{"size": "728"}]}}}, "dtype": {"type": "DT_FLOAT"}}}, {"name": "StatefulPartitionedCall/sequential_1/xception_1/block5_sepconv3_1/separable_conv2d/ReadVariableOp", "op": "Const", "attr": {"value": {"tensor": {"dtype": "DT_FLOAT", "tensorShape": {"dim": [{"size": "3"}, {"size": "3"}, {"size": "728"}, {"size": "1"}]}}}, "dtype": {"type": "DT_FLOAT"}}}, {"name": "StatefulPartitionedCall/sequential_1/xception_1/block5_sepconv3_1/separable_conv2d/merged_input", "op": "Const", "attr": {"value": {"tensor": {"dtype": "DT_FLOAT", "tensorShape": {"dim": [{"size": "1"}, {"size": "1"}, {"size": "728"}, {"size": "728"}]}}}, "dtype": {"type": "DT_FLOAT"}}}, {"name": "StatefulPartitionedCall/sequential_1/xception_1/block5_sepconv3_bn_1/batchnorm/sub", "op": "Const", "attr": {"value": {"tensor": {"dtype": "DT_FLOAT", "tensorShape": {"dim": [{"size": "728"}]}}}, "dtype": {"type": "DT_FLOAT"}}}, {"name": "StatefulPartitionedCall/sequential_1/xception_1/block4_sepconv1_1/separable_conv2d/ReadVariableOp", "op": "Const", "attr": {"value": {"tensor": {"dtype": "DT_FLOAT", "tensorShape": {"dim": [{"size": "3"}, {"size": "3"}, {"size": "256"}, {"size": "1"}]}}}, "dtype": {"type": "DT_FLOAT"}}}, {"name": "StatefulPartitionedCall/sequential_1/xception_1/block4_sepconv1_1/separable_conv2d/merged_input", "op": "Const", "attr": {"dtype": {"type": "DT_FLOAT"}, "value": {"tensor": {"dtype": "DT_FLOAT", "tensorShape": {"dim": [{"size": "1"}, {"size": "1"}, {"size": "256"}, {"size": "728"}]}}}}}, {"name": "StatefulPartitionedCall/sequential_1/xception_1/block4_sepconv1_bn_1/batchnorm/sub", "op": "Const", "attr": {"dtype": {"type": "DT_FLOAT"}, "value": {"tensor": {"dtype": "DT_FLOAT", "tensorShape": {"dim": [{"size": "728"}]}}}}}, {"name": "StatefulPartitionedCall/sequential_1/xception_1/block4_sepconv2_1/separable_conv2d/ReadVariableOp", "op": "Const", "attr": {"dtype": {"type": "DT_FLOAT"}, "value": {"tensor": {"dtype": "DT_FLOAT", "tensorShape": {"dim": [{"size": "3"}, {"size": "3"}, {"size": "728"}, {"size": "1"}]}}}}}, {"name": "StatefulPartitionedCall/sequential_1/xception_1/block4_sepconv2_1/separable_conv2d/merged_input", "op": "Const", "attr": {"value": {"tensor": {"dtype": "DT_FLOAT", "tensorShape": {"dim": [{"size": "1"}, {"size": "1"}, {"size": "728"}, {"size": "728"}]}}}, "dtype": {"type": "DT_FLOAT"}}}, {"name": "StatefulPartitionedCall/sequential_1/xception_1/block4_sepconv2_bn_1/batchnorm/sub", "op": "Const", "attr": {"dtype": {"type": "DT_FLOAT"}, "value": {"tensor": {"dtype": "DT_FLOAT", "tensorShape": {"dim": [{"size": "728"}]}}}}}, {"name": "StatefulPartitionedCall/sequential_1/xception_1/block3_sepconv1_1/separable_conv2d/ReadVariableOp", "op": "Const", "attr": {"value": {"tensor": {"dtype": "DT_FLOAT", "tensorShape": {"dim": [{"size": "3"}, {"size": "3"}, {"size": "128"}, {"size": "1"}]}}}, "dtype": {"type": "DT_FLOAT"}}}, {"name": "StatefulPartitionedCall/sequential_1/xception_1/block3_sepconv1_1/separable_conv2d/merged_input", "op": "Const", "attr": {"value": {"tensor": {"dtype": "DT_FLOAT", "tensorShape": {"dim": [{"size": "1"}, {"size": "1"}, {"size": "128"}, {"size": "256"}]}}}, "dtype": {"type": "DT_FLOAT"}}}, {"name": "StatefulPartitionedCall/sequential_1/xception_1/block3_sepconv1_bn_1/batchnorm/sub", "op": "Const", "attr": {"dtype": {"type": "DT_FLOAT"}, "value": {"tensor": {"dtype": "DT_FLOAT", "tensorShape": {"dim": [{"size": "256"}]}}}}}, {"name": "StatefulPartitionedCall/sequential_1/xception_1/block3_sepconv2_1/separable_conv2d/ReadVariableOp", "op": "Const", "attr": {"dtype": {"type": "DT_FLOAT"}, "value": {"tensor": {"dtype": "DT_FLOAT", "tensorShape": {"dim": [{"size": "3"}, {"size": "3"}, {"size": "256"}, {"size": "1"}]}}}}}, {"name": "StatefulPartitionedCall/sequential_1/xception_1/block3_sepconv2_1/separable_conv2d/merged_input", "op": "Const", "attr": {"value": {"tensor": {"dtype": "DT_FLOAT", "tensorShape": {"dim": [{"size": "1"}, {"size": "1"}, {"size": "256"}, {"size": "256"}]}}}, "dtype": {"type": "DT_FLOAT"}}}, {"name": "StatefulPartitionedCall/sequential_1/xception_1/block3_sepconv2_bn_1/batchnorm/sub", "op": "Const", "attr": {"value": {"tensor": {"dtype": "DT_FLOAT", "tensorShape": {"dim": [{"size": "256"}]}}}, "dtype": {"type": "DT_FLOAT"}}}, {"name": "StatefulPartitionedCall/sequential_1/xception_1/block2_sepconv1_1/separable_conv2d/ReadVariableOp", "op": "Const", "attr": {"value": {"tensor": {"dtype": "DT_FLOAT", "tensorShape": {"dim": [{"size": "3"}, {"size": "3"}, {"size": "64"}, {"size": "1"}]}}}, "dtype": {"type": "DT_FLOAT"}}}, {"name": "StatefulPartitionedCall/sequential_1/xception_1/block2_sepconv1_1/separable_conv2d/merged_input", "op": "Const", "attr": {"value": {"tensor": {"dtype": "DT_FLOAT", "tensorShape": {"dim": [{"size": "1"}, {"size": "1"}, {"size": "64"}, {"size": "128"}]}}}, "dtype": {"type": "DT_FLOAT"}}}, {"name": "StatefulPartitionedCall/sequential_1/xception_1/block2_sepconv1_bn_1/batchnorm/sub", "op": "Const", "attr": {"dtype": {"type": "DT_FLOAT"}, "value": {"tensor": {"dtype": "DT_FLOAT", "tensorShape": {"dim": [{"size": "128"}]}}}}}, {"name": "StatefulPartitionedCall/sequential_1/xception_1/block2_sepconv2_1/separable_conv2d/ReadVariableOp", "op": "Const", "attr": {"value": {"tensor": {"dtype": "DT_FLOAT", "tensorShape": {"dim": [{"size": "3"}, {"size": "3"}, {"size": "128"}, {"size": "1"}]}}}, "dtype": {"type": "DT_FLOAT"}}}, {"name": "StatefulPartitionedCall/sequential_1/xception_1/block2_sepconv2_1/separable_conv2d/merged_input", "op": "Const", "attr": {"value": {"tensor": {"dtype": "DT_FLOAT", "tensorShape": {"dim": [{"size": "1"}, {"size": "1"}, {"size": "128"}, {"size": "128"}]}}}, "dtype": {"type": "DT_FLOAT"}}}, {"name": "StatefulPartitionedCall/sequential_1/xception_1/block2_sepconv2_bn_1/batchnorm/sub", "op": "Const", "attr": {"dtype": {"type": "DT_FLOAT"}, "value": {"tensor": {"dtype": "DT_FLOAT", "tensorShape": {"dim": [{"size": "128"}]}}}}}, {"name": "StatefulPartitionedCall/sequential_1/xception_1/block1_conv1_1/convolution/merged_input", "op": "Const", "attr": {"value": {"tensor": {"dtype": "DT_FLOAT", "tensorShape": {"dim": [{"size": "3"}, {"size": "3"}, {"size": "3"}, {"size": "32"}]}}}, "dtype": {"type": "DT_FLOAT"}}}, {"name": "StatefulPartitionedCall/sequential_1/xception_1/block1_conv1_bn_1/batchnorm/sub", "op": "Const", "attr": {"value": {"tensor": {"dtype": "DT_FLOAT", "tensorShape": {"dim": [{"size": "32"}]}}}, "dtype": {"type": "DT_FLOAT"}}}, {"name": "StatefulPartitionedCall/sequential_1/xception_1/block1_conv2_1/convolution/merged_input", "op": "Const", "attr": {"dtype": {"type": "DT_FLOAT"}, "value": {"tensor": {"dtype": "DT_FLOAT", "tensorShape": {"dim": [{"size": "3"}, {"size": "3"}, {"size": "32"}, {"size": "64"}]}}}}}, {"name": "StatefulPartitionedCall/sequential_1/xception_1/block1_conv2_bn_1/batchnorm/sub", "op": "Const", "attr": {"dtype": {"type": "DT_FLOAT"}, "value": {"tensor": {"dtype": "DT_FLOAT", "tensorShape": {"dim": [{"size": "64"}]}}}}}, {"name": "StatefulPartitionedCall/sequential_1/xception_1/conv2d_1/convolution/merged_input", "op": "Const", "attr": {"dtype": {"type": "DT_FLOAT"}, "value": {"tensor": {"dtype": "DT_FLOAT", "tensorShape": {"dim": [{"size": "1"}, {"size": "1"}, {"size": "64"}, {"size": "128"}]}}}}}, {"name": "StatefulPartitionedCall/sequential_1/xception_1/batch_normalization_1/batchnorm/sub", "op": "Const", "attr": {"dtype": {"type": "DT_FLOAT"}, "value": {"tensor": {"dtype": "DT_FLOAT", "tensorShape": {"dim": [{"size": "128"}]}}}}}, {"name": "StatefulPartitionedCall/sequential_1/xception_1/conv2d_1_2/convolution/merged_input", "op": "Const", "attr": {"value": {"tensor": {"dtype": "DT_FLOAT", "tensorShape": {"dim": [{"size": "1"}, {"size": "1"}, {"size": "128"}, {"size": "256"}]}}}, "dtype": {"type": "DT_FLOAT"}}}, {"name": "StatefulPartitionedCall/sequential_1/xception_1/batch_normalization_1_2/batchnorm/sub", "op": "Const", "attr": {"value": {"tensor": {"dtype": "DT_FLOAT", "tensorShape": {"dim": [{"size": "256"}]}}}, "dtype": {"type": "DT_FLOAT"}}}, {"name": "StatefulPartitionedCall/sequential_1/xception_1/conv2d_2_1/convolution/merged_input", "op": "Const", "attr": {"dtype": {"type": "DT_FLOAT"}, "value": {"tensor": {"dtype": "DT_FLOAT", "tensorShape": {"dim": [{"size": "1"}, {"size": "1"}, {"size": "256"}, {"size": "728"}]}}}}}, {"name": "StatefulPartitionedCall/sequential_1/xception_1/batch_normalization_2_1/batchnorm/sub", "op": "Const", "attr": {"dtype": {"type": "DT_FLOAT"}, "value": {"tensor": {"dtype": "DT_FLOAT", "tensorShape": {"dim": [{"size": "728"}]}}}}}, {"name": "StatefulPartitionedCall/sequential_1/xception_1/conv2d_3_1/convolution/merged_input", "op": "Const", "attr": {"dtype": {"type": "DT_FLOAT"}, "value": {"tensor": {"dtype": "DT_FLOAT", "tensorShape": {"dim": [{"size": "1"}, {"size": "1"}, {"size": "728"}, {"size": "1024"}]}}}}}, {"name": "StatefulPartitionedCall/sequential_1/xception_1/batch_normalization_3_1/batchnorm/sub", "op": "Const", "attr": {"value": {"tensor": {"dtype": "DT_FLOAT", "tensorShape": {"dim": [{"size": "1024"}]}}}, "dtype": {"type": "DT_FLOAT"}}}, {"name": "StatefulPartitionedCall/sequential_1/xception_1/block14_sepconv1_1/separable_conv2d/ReadVariableOp", "op": "Const", "attr": {"value": {"tensor": {"dtype": "DT_FLOAT", "tensorShape": {"dim": [{"size": "3"}, {"size": "3"}, {"size": "1024"}, {"size": "1"}]}}}, "dtype": {"type": "DT_FLOAT"}}}, {"name": "StatefulPartitionedCall/sequential_1/xception_1/block14_sepconv1_1/separable_conv2d/merged_input", "op": "Const", "attr": {"value": {"tensor": {"dtype": "DT_FLOAT", "tensorShape": {"dim": [{"size": "1"}, {"size": "1"}, {"size": "1024"}, {"size": "1536"}]}}}, "dtype": {"type": "DT_FLOAT"}}}, {"name": "StatefulPartitionedCall/sequential_1/xception_1/block14_sepconv1_bn_1/batchnorm/sub", "op": "Const", "attr": {"value": {"tensor": {"dtype": "DT_FLOAT", "tensorShape": {"dim": [{"size": "1536"}]}}}, "dtype": {"type": "DT_FLOAT"}}}, {"name": "StatefulPartitionedCall/sequential_1/xception_1/block14_sepconv2_1/separable_conv2d/ReadVariableOp", "op": "Const", "attr": {"dtype": {"type": "DT_FLOAT"}, "value": {"tensor": {"dtype": "DT_FLOAT", "tensorShape": {"dim": [{"size": "3"}, {"size": "3"}, {"size": "1536"}, {"size": "1"}]}}}}}, {"name": "StatefulPartitionedCall/sequential_1/xception_1/block14_sepconv2_1/separable_conv2d/merged_input", "op": "Const", "attr": {"dtype": {"type": "DT_FLOAT"}, "value": {"tensor": {"dtype": "DT_FLOAT", "tensorShape": {"dim": [{"size": "1"}, {"size": "1"}, {"size": "1536"}, {"size": "2048"}]}}}}}, {"name": "StatefulPartitionedCall/sequential_1/xception_1/block14_sepconv2_bn_1/batchnorm/sub", "op": "Const", "attr": {"dtype": {"type": "DT_FLOAT"}, "value": {"tensor": {"dtype": "DT_FLOAT", "tensorShape": {"dim": [{"size": "2048"}]}}}}}, {"name": "StatefulPartitionedCall/sequential_1/conv2d_4_1/convolution/ReadVariableOp", "op": "Const", "attr": {"value": {"tensor": {"dtype": "DT_FLOAT", "tensorShape": {"dim": [{"size": "3"}, {"size": "3"}, {"size": "2048"}, {"size": "512"}]}}}, "dtype": {"type": "DT_FLOAT"}}}, {"name": "StatefulPartitionedCall/sequential_1/conv2d_4_1/Squeeze", "op": "Const", "attr": {"value": {"tensor": {"dtype": "DT_FLOAT", "tensorShape": {"dim": [{"size": "512"}]}}}, "dtype": {"type": "DT_FLOAT"}}}, {"name": "StatefulPartitionedCall/sequential_1/batch_normalization_4_1/batchnorm/mul", "op": "Const", "attr": {"value": {"tensor": {"dtype": "DT_FLOAT", "tensorShape": {"dim": [{"size": "512"}]}}}, "dtype": {"type": "DT_FLOAT"}}}, {"name": "StatefulPartitionedCall/sequential_1/batch_normalization_4_1/batchnorm/sub", "op": "Const", "attr": {"value": {"tensor": {"dtype": "DT_FLOAT", "tensorShape": {"dim": [{"size": "512"}]}}}, "dtype": {"type": "DT_FLOAT"}}}, {"name": "StatefulPartitionedCall/sequential_1/flatten_1/Reshape/shape", "op": "Const", "attr": {"dtype": {"type": "DT_INT32"}, "value": {"tensor": {"dtype": "DT_INT32", "tensorShape": {"dim": [{"size": "2"}]}}}}}, {"name": "StatefulPartitionedCall/sequential_1/dense_1/Cast/ReadVariableOp", "op": "Const", "attr": {"value": {"tensor": {"dtype": "DT_FLOAT", "tensorShape": {"dim": [{"size": "12800"}, {"size": "512"}]}}}, "dtype": {"type": "DT_FLOAT"}}}, {"name": "StatefulPartitionedCall/sequential_1/dense_1/BiasAdd/ReadVariableOp", "op": "Const", "attr": {"value": {"tensor": {"dtype": "DT_FLOAT", "tensorShape": {"dim": [{"size": "512"}]}}}, "dtype": {"type": "DT_FLOAT"}}}, {"name": "StatefulPartitionedCall/sequential_1/dense_1_2/Cast/ReadVariableOp", "op": "Const", "attr": {"value": {"tensor": {"dtype": "DT_FLOAT", "tensorShape": {"dim": [{"size": "512"}, {"size": "4"}]}}}, "dtype": {"type": "DT_FLOAT"}}}, {"name": "StatefulPartitionedCall/sequential_1/dense_1_2/BiasAdd/ReadVariableOp", "op": "Const", "attr": {"dtype": {"type": "DT_FLOAT"}, "value": {"tensor": {"dtype": "DT_FLOAT", "tensorShape": {"dim": [{"size": "4"}]}}}}}, {"name": "inputs", "op": "Placeholder", "attr": {"dtype": {"type": "DT_FLOAT"}, "shape": {"shape": {"dim": [{"size": "-1"}, {"size": "299"}, {"size": "299"}, {"size": "3"}]}}}}, {"name": "StatefulPartitionedCall/sequential_1/xception_1/block1_conv1_act_1/Relu", "op": "_FusedConv2D", "input": ["inputs", "StatefulPartitionedCall/sequential_1/xception_1/block1_conv1_1/convolution/merged_input", "StatefulPartitionedCall/sequential_1/xception_1/block1_conv1_bn_1/batchnorm/sub"], "device": "/device:CPU:0", "attr": {"use_cudnn_on_gpu": {"b": true}, "explicit_paddings": {"list": {}}, "TArgs": {"list": {"type": ["DT_FLOAT"]}}, "padding": {"s": "VkFMSUQ="}, "T": {"type": "DT_FLOAT"}, "epsilon": {"f": 0.0}, "filter_format": {"s": "SFdJTw=="}, "dilations": {"list": {"i": ["1", "1", "1", "1"]}}, "strides": {"list": {"i": ["1", "2", "2", "1"]}}, "data_format": {"s": "TkhXQw=="}, "num_args": {"i": "1"}, "fused_ops": {"list": {"s": ["Qmlhc0FkZA==", "UmVsdQ=="]}}, "num_host_args": {"i": "0"}, "leakyrelu_alpha": {"f": 0.2}}}, {"name": "StatefulPartitionedCall/sequential_1/xception_1/block1_conv2_act_1/Relu", "op": "_FusedConv2D", "input": ["StatefulPartitionedCall/sequential_1/xception_1/block1_conv1_act_1/Relu", "StatefulPartitionedCall/sequential_1/xception_1/block1_conv2_1/convolution/merged_input", "StatefulPartitionedCall/sequential_1/xception_1/block1_conv2_bn_1/batchnorm/sub"], "device": "/device:CPU:0", "attr": {"data_format": {"s": "TkhXQw=="}, "explicit_paddings": {"list": {}}, "num_args": {"i": "1"}, "padding": {"s": "VkFMSUQ="}, "leakyrelu_alpha": {"f": 0.2}, "filter_format": {"s": "SFdJTw=="}, "use_cudnn_on_gpu": {"b": true}, "epsilon": {"f": 0.0}, "fused_ops": {"list": {"s": ["Qmlhc0FkZA==", "UmVsdQ=="]}}, "num_host_args": {"i": "0"}, "strides": {"list": {"i": ["1", "1", "1", "1"]}}, "TArgs": {"list": {"type": ["DT_FLOAT"]}}, "T": {"type": "DT_FLOAT"}, "dilations": {"list": {"i": ["1", "1", "1", "1"]}}}}, {"name": "StatefulPartitionedCall/sequential_1/xception_1/block2_sepconv1_1/separable_conv2d/depthwise", "op": "DepthwiseConv2dNative", "input": ["StatefulPartitionedCall/sequential_1/xception_1/block1_conv2_act_1/Relu", "StatefulPartitionedCall/sequential_1/xception_1/block2_sepconv1_1/separable_conv2d/ReadVariableOp"], "attr": {"strides": {"list": {"i": ["1", "1", "1", "1"]}}, "explicit_paddings": {"list": {}}, "data_format": {"s": "TkhXQw=="}, "T": {"type": "DT_FLOAT"}, "dilations": {"list": {"i": ["1", "1", "1", "1"]}}, "padding": {"s": "U0FNRQ=="}}}, {"name": "StatefulPartitionedCall/sequential_1/xception_1/batch_normalization_1/batchnorm/add_1", "op": "_FusedConv2D", "input": ["StatefulPartitionedCall/sequential_1/xception_1/block1_conv2_act_1/Relu", "StatefulPartitionedCall/sequential_1/xception_1/conv2d_1/convolution/merged_input", "StatefulPartitionedCall/sequential_1/xception_1/batch_normalization_1/batchnorm/sub"], "device": "/device:CPU:0", "attr": {"data_format": {"s": "TkhXQw=="}, "T": {"type": "DT_FLOAT"}, "TArgs": {"list": {"type": ["DT_FLOAT"]}}, "explicit_paddings": {"list": {}}, "fused_ops": {"list": {"s": ["Qmlhc0FkZA=="]}}, "num_args": {"i": "1"}, "epsilon": {"f": 0.0}, "num_host_args": {"i": "0"}, "strides": {"list": {"i": ["1", "2", "2", "1"]}}, "use_cudnn_on_gpu": {"b": true}, "leakyrelu_alpha": {"f": 0.2}, "dilations": {"list": {"i": ["1", "1", "1", "1"]}}, "padding": {"s": "U0FNRQ=="}, "filter_format": {"s": "SFdJTw=="}}}, {"name": "StatefulPartitionedCall/sequential_1/xception_1/block2_sepconv2_act_1/Relu", "op": "_FusedConv2D", "input": ["StatefulPartitionedCall/sequential_1/xception_1/block2_sepconv1_1/separable_conv2d/depthwise", "StatefulPartitionedCall/sequential_1/xception_1/block2_sepconv1_1/separable_conv2d/merged_input", "StatefulPartitionedCall/sequential_1/xception_1/block2_sepconv1_bn_1/batchnorm/sub"], "device": "/device:CPU:0", "attr": {"filter_format": {"s": "SFdJTw=="}, "num_args": {"i": "1"}, "num_host_args": {"i": "0"}, "strides": {"list": {"i": ["1", "1", "1", "1"]}}, "TArgs": {"list": {"type": ["DT_FLOAT"]}}, "data_format": {"s": "TkhXQw=="}, "use_cudnn_on_gpu": {"b": true}, "epsilon": {"f": 0.0}, "fused_ops": {"list": {"s": ["Qmlhc0FkZA==", "UmVsdQ=="]}}, "dilations": {"list": {"i": ["1", "1", "1", "1"]}}, "padding": {"s": "VkFMSUQ="}, "leakyrelu_alpha": {"f": 0.2}, "T": {"type": "DT_FLOAT"}, "explicit_paddings": {"list": {}}}}, {"name": "StatefulPartitionedCall/sequential_1/xception_1/block2_sepconv2_1/separable_conv2d/depthwise", "op": "DepthwiseConv2dNative", "input": ["StatefulPartitionedCall/sequential_1/xception_1/block2_sepconv2_act_1/Relu", "StatefulPartitionedCall/sequential_1/xception_1/block2_sepconv2_1/separable_conv2d/ReadVariableOp"], "attr": {"dilations": {"list": {"i": ["1", "1", "1", "1"]}}, "data_format": {"s": "TkhXQw=="}, "strides": {"list": {"i": ["1", "1", "1", "1"]}}, "T": {"type": "DT_FLOAT"}, "padding": {"s": "U0FNRQ=="}, "explicit_paddings": {"list": {}}}}, {"name": "StatefulPartitionedCall/sequential_1/xception_1/block2_sepconv2_bn_1/batchnorm/add_1", "op": "_FusedConv2D", "input": ["StatefulPartitionedCall/sequential_1/xception_1/block2_sepconv2_1/separable_conv2d/depthwise", "StatefulPartitionedCall/sequential_1/xception_1/block2_sepconv2_1/separable_conv2d/merged_input", "StatefulPartitionedCall/sequential_1/xception_1/block2_sepconv2_bn_1/batchnorm/sub"], "device": "/device:CPU:0", "attr": {"filter_format": {"s": "SFdJTw=="}, "fused_ops": {"list": {"s": ["Qmlhc0FkZA=="]}}, "T": {"type": "DT_FLOAT"}, "dilations": {"list": {"i": ["1", "1", "1", "1"]}}, "TArgs": {"list": {"type": ["DT_FLOAT"]}}, "epsilon": {"f": 0.0}, "padding": {"s": "VkFMSUQ="}, "num_host_args": {"i": "0"}, "data_format": {"s": "TkhXQw=="}, "leakyrelu_alpha": {"f": 0.2}, "use_cudnn_on_gpu": {"b": true}, "explicit_paddings": {"list": {}}, "num_args": {"i": "1"}, "strides": {"list": {"i": ["1", "1", "1", "1"]}}}}, {"name": "StatefulPartitionedCall/sequential_1/xception_1/block2_pool_1/MaxPool2d", "op": "MaxPool", "input": ["StatefulPartitionedCall/sequential_1/xception_1/block2_sepconv2_bn_1/batchnorm/add_1"], "attr": {"padding": {"s": "U0FNRQ=="}, "ksize": {"list": {"i": ["1", "3", "3", "1"]}}, "data_format": {"s": "TkhXQw=="}, "strides": {"list": {"i": ["1", "2", "2", "1"]}}, "T": {"type": "DT_FLOAT"}, "explicit_paddings": {"list": {}}}}, {"name": "StatefulPartitionedCall/sequential_1/xception_1/add_1/Add", "op": "AddV2", "input": ["StatefulPartitionedCall/sequential_1/xception_1/block2_pool_1/MaxPool2d", "StatefulPartitionedCall/sequential_1/xception_1/batch_normalization_1/batchnorm/add_1"], "attr": {"T": {"type": "DT_FLOAT"}}}, {"name": "StatefulPartitionedCall/sequential_1/xception_1/block3_sepconv1_act_1/Relu", "op": "Relu", "input": ["StatefulPartitionedCall/sequential_1/xception_1/add_1/Add"], "attr": {"T": {"type": "DT_FLOAT"}}}, {"name": "StatefulPartitionedCall/sequential_1/xception_1/batch_normalization_1_2/batchnorm/add_1", "op": "_FusedConv2D", "input": ["StatefulPartitionedCall/sequential_1/xception_1/add_1/Add", "StatefulPartitionedCall/sequential_1/xception_1/conv2d_1_2/convolution/merged_input", "StatefulPartitionedCall/sequential_1/xception_1/batch_normalization_1_2/batchnorm/sub"], "device": "/device:CPU:0", "attr": {"num_args": {"i": "1"}, "epsilon": {"f": 0.0}, "padding": {"s": "U0FNRQ=="}, "data_format": {"s": "TkhXQw=="}, "TArgs": {"list": {"type": ["DT_FLOAT"]}}, "num_host_args": {"i": "0"}, "explicit_paddings": {"list": {}}, "dilations": {"list": {"i": ["1", "1", "1", "1"]}}, "T": {"type": "DT_FLOAT"}, "filter_format": {"s": "SFdJTw=="}, "fused_ops": {"list": {"s": ["Qmlhc0FkZA=="]}}, "strides": {"list": {"i": ["1", "2", "2", "1"]}}, "leakyrelu_alpha": {"f": 0.2}, "use_cudnn_on_gpu": {"b": true}}}, {"name": "StatefulPartitionedCall/sequential_1/xception_1/block3_sepconv1_1/separable_conv2d/depthwise", "op": "DepthwiseConv2dNative", "input": ["StatefulPartitionedCall/sequential_1/xception_1/block3_sepconv1_act_1/Relu", "StatefulPartitionedCall/sequential_1/xception_1/block3_sepconv1_1/separable_conv2d/ReadVariableOp"], "attr": {"padding": {"s": "U0FNRQ=="}, "explicit_paddings": {"list": {}}, "T": {"type": "DT_FLOAT"}, "dilations": {"list": {"i": ["1", "1", "1", "1"]}}, "strides": {"list": {"i": ["1", "1", "1", "1"]}}, "data_format": {"s": "TkhXQw=="}}}, {"name": "StatefulPartitionedCall/sequential_1/xception_1/block3_sepconv2_act_1/Relu", "op": "_FusedConv2D", "input": ["StatefulPartitionedCall/sequential_1/xception_1/block3_sepconv1_1/separable_conv2d/depthwise", "StatefulPartitionedCall/sequential_1/xception_1/block3_sepconv1_1/separable_conv2d/merged_input", "StatefulPartitionedCall/sequential_1/xception_1/block3_sepconv1_bn_1/batchnorm/sub"], "device": "/device:CPU:0", "attr": {"T": {"type": "DT_FLOAT"}, "fused_ops": {"list": {"s": ["Qmlhc0FkZA==", "UmVsdQ=="]}}, "num_host_args": {"i": "0"}, "leakyrelu_alpha": {"f": 0.2}, "padding": {"s": "VkFMSUQ="}, "use_cudnn_on_gpu": {"b": true}, "epsilon": {"f": 0.0}, "data_format": {"s": "TkhXQw=="}, "TArgs": {"list": {"type": ["DT_FLOAT"]}}, "num_args": {"i": "1"}, "explicit_paddings": {"list": {}}, "dilations": {"list": {"i": ["1", "1", "1", "1"]}}, "filter_format": {"s": "SFdJTw=="}, "strides": {"list": {"i": ["1", "1", "1", "1"]}}}}, {"name": "StatefulPartitionedCall/sequential_1/xception_1/block3_sepconv2_1/separable_conv2d/depthwise", "op": "DepthwiseConv2dNative", "input": ["StatefulPartitionedCall/sequential_1/xception_1/block3_sepconv2_act_1/Relu", "StatefulPartitionedCall/sequential_1/xception_1/block3_sepconv2_1/separable_conv2d/ReadVariableOp"], "attr": {"padding": {"s": "U0FNRQ=="}, "T": {"type": "DT_FLOAT"}, "explicit_paddings": {"list": {}}, "strides": {"list": {"i": ["1", "1", "1", "1"]}}, "dilations": {"list": {"i": ["1", "1", "1", "1"]}}, "data_format": {"s": "TkhXQw=="}}}, {"name": "StatefulPartitionedCall/sequential_1/xception_1/block3_sepconv2_bn_1/batchnorm/add_1", "op": "_FusedConv2D", "input": ["StatefulPartitionedCall/sequential_1/xception_1/block3_sepconv2_1/separable_conv2d/depthwise", "StatefulPartitionedCall/sequential_1/xception_1/block3_sepconv2_1/separable_conv2d/merged_input", "StatefulPartitionedCall/sequential_1/xception_1/block3_sepconv2_bn_1/batchnorm/sub"], "device": "/device:CPU:0", "attr": {"data_format": {"s": "TkhXQw=="}, "num_args": {"i": "1"}, "leakyrelu_alpha": {"f": 0.2}, "dilations": {"list": {"i": ["1", "1", "1", "1"]}}, "fused_ops": {"list": {"s": ["Qmlhc0FkZA=="]}}, "filter_format": {"s": "SFdJTw=="}, "T": {"type": "DT_FLOAT"}, "use_cudnn_on_gpu": {"b": true}, "num_host_args": {"i": "0"}, "strides": {"list": {"i": ["1", "1", "1", "1"]}}, "padding": {"s": "VkFMSUQ="}, "epsilon": {"f": 0.0}, "explicit_paddings": {"list": {}}, "TArgs": {"list": {"type": ["DT_FLOAT"]}}}}, {"name": "StatefulPartitionedCall/sequential_1/xception_1/block3_pool_1/MaxPool2d", "op": "MaxPool", "input": ["StatefulPartitionedCall/sequential_1/xception_1/block3_sepconv2_bn_1/batchnorm/add_1"], "attr": {"strides": {"list": {"i": ["1", "2", "2", "1"]}}, "explicit_paddings": {"list": {}}, "T": {"type": "DT_FLOAT"}, "padding": {"s": "U0FNRQ=="}, "ksize": {"list": {"i": ["1", "3", "3", "1"]}}, "data_format": {"s": "TkhXQw=="}}}, {"name": "StatefulPartitionedCall/sequential_1/xception_1/add_1_2/Add", "op": "AddV2", "input": ["StatefulPartitionedCall/sequential_1/xception_1/block3_pool_1/MaxPool2d", "StatefulPartitionedCall/sequential_1/xception_1/batch_normalization_1_2/batchnorm/add_1"], "attr": {"T": {"type": "DT_FLOAT"}}}, {"name": "StatefulPartitionedCall/sequential_1/xception_1/block4_sepconv1_act_1/Relu", "op": "Relu", "input": ["StatefulPartitionedCall/sequential_1/xception_1/add_1_2/Add"], "attr": {"T": {"type": "DT_FLOAT"}}}, {"name": "StatefulPartitionedCall/sequential_1/xception_1/batch_normalization_2_1/batchnorm/add_1", "op": "_FusedConv2D", "input": ["StatefulPartitionedCall/sequential_1/xception_1/add_1_2/Add", "StatefulPartitionedCall/sequential_1/xception_1/conv2d_2_1/convolution/merged_input", "StatefulPartitionedCall/sequential_1/xception_1/batch_normalization_2_1/batchnorm/sub"], "device": "/device:CPU:0", "attr": {"num_host_args": {"i": "0"}, "filter_format": {"s": "SFdJTw=="}, "dilations": {"list": {"i": ["1", "1", "1", "1"]}}, "padding": {"s": "U0FNRQ=="}, "fused_ops": {"list": {"s": ["Qmlhc0FkZA=="]}}, "TArgs": {"list": {"type": ["DT_FLOAT"]}}, "data_format": {"s": "TkhXQw=="}, "num_args": {"i": "1"}, "use_cudnn_on_gpu": {"b": true}, "strides": {"list": {"i": ["1", "2", "2", "1"]}}, "epsilon": {"f": 0.0}, "T": {"type": "DT_FLOAT"}, "explicit_paddings": {"list": {}}, "leakyrelu_alpha": {"f": 0.2}}}, {"name": "StatefulPartitionedCall/sequential_1/xception_1/block4_sepconv1_1/separable_conv2d/depthwise", "op": "DepthwiseConv2dNative", "input": ["StatefulPartitionedCall/sequential_1/xception_1/block4_sepconv1_act_1/Relu", "StatefulPartitionedCall/sequential_1/xception_1/block4_sepconv1_1/separable_conv2d/ReadVariableOp"], "attr": {"padding": {"s": "U0FNRQ=="}, "data_format": {"s": "TkhXQw=="}, "strides": {"list": {"i": ["1", "1", "1", "1"]}}, "dilations": {"list": {"i": ["1", "1", "1", "1"]}}, "T": {"type": "DT_FLOAT"}, "explicit_paddings": {"list": {}}}}, {"name": "StatefulPartitionedCall/sequential_1/xception_1/block4_sepconv2_act_1/Relu", "op": "_FusedConv2D", "input": ["StatefulPartitionedCall/sequential_1/xception_1/block4_sepconv1_1/separable_conv2d/depthwise", "StatefulPartitionedCall/sequential_1/xception_1/block4_sepconv1_1/separable_conv2d/merged_input", "StatefulPartitionedCall/sequential_1/xception_1/block4_sepconv1_bn_1/batchnorm/sub"], "device": "/device:CPU:0", "attr": {"num_args": {"i": "1"}, "padding": {"s": "VkFMSUQ="}, "TArgs": {"list": {"type": ["DT_FLOAT"]}}, "explicit_paddings": {"list": {}}, "use_cudnn_on_gpu": {"b": true}, "fused_ops": {"list": {"s": ["Qmlhc0FkZA==", "UmVsdQ=="]}}, "data_format": {"s": "TkhXQw=="}, "T": {"type": "DT_FLOAT"}, "filter_format": {"s": "SFdJTw=="}, "dilations": {"list": {"i": ["1", "1", "1", "1"]}}, "strides": {"list": {"i": ["1", "1", "1", "1"]}}, "epsilon": {"f": 0.0}, "num_host_args": {"i": "0"}, "leakyrelu_alpha": {"f": 0.2}}}, {"name": "StatefulPartitionedCall/sequential_1/xception_1/block4_sepconv2_1/separable_conv2d/depthwise", "op": "DepthwiseConv2dNative", "input": ["StatefulPartitionedCall/sequential_1/xception_1/block4_sepconv2_act_1/Relu", "StatefulPartitionedCall/sequential_1/xception_1/block4_sepconv2_1/separable_conv2d/ReadVariableOp"], "attr": {"data_format": {"s": "TkhXQw=="}, "dilations": {"list": {"i": ["1", "1", "1", "1"]}}, "explicit_paddings": {"list": {}}, "padding": {"s": "U0FNRQ=="}, "T": {"type": "DT_FLOAT"}, "strides": {"list": {"i": ["1", "1", "1", "1"]}}}}, {"name": "StatefulPartitionedCall/sequential_1/xception_1/block4_sepconv2_bn_1/batchnorm/add_1", "op": "_FusedConv2D", "input": ["StatefulPartitionedCall/sequential_1/xception_1/block4_sepconv2_1/separable_conv2d/depthwise", "StatefulPartitionedCall/sequential_1/xception_1/block4_sepconv2_1/separable_conv2d/merged_input", "StatefulPartitionedCall/sequential_1/xception_1/block4_sepconv2_bn_1/batchnorm/sub"], "device": "/device:CPU:0", "attr": {"fused_ops": {"list": {"s": ["Qmlhc0FkZA=="]}}, "filter_format": {"s": "SFdJTw=="}, "num_host_args": {"i": "0"}, "use_cudnn_on_gpu": {"b": true}, "padding": {"s": "VkFMSUQ="}, "T": {"type": "DT_FLOAT"}, "num_args": {"i": "1"}, "dilations": {"list": {"i": ["1", "1", "1", "1"]}}, "explicit_paddings": {"list": {}}, "TArgs": {"list": {"type": ["DT_FLOAT"]}}, "strides": {"list": {"i": ["1", "1", "1", "1"]}}, "data_format": {"s": "TkhXQw=="}, "epsilon": {"f": 0.0}, "leakyrelu_alpha": {"f": 0.2}}}, {"name": "StatefulPartitionedCall/sequential_1/xception_1/block4_pool_1/MaxPool2d", "op": "MaxPool", "input": ["StatefulPartitionedCall/sequential_1/xception_1/block4_sepconv2_bn_1/batchnorm/add_1"], "attr": {"ksize": {"list": {"i": ["1", "3", "3", "1"]}}, "padding": {"s": "U0FNRQ=="}, "explicit_paddings": {"list": {}}, "data_format": {"s": "TkhXQw=="}, "strides": {"list": {"i": ["1", "2", "2", "1"]}}, "T": {"type": "DT_FLOAT"}}}, {"name": "StatefulPartitionedCall/sequential_1/xception_1/add_2_1/Add", "op": "AddV2", "input": ["StatefulPartitionedCall/sequential_1/xception_1/block4_pool_1/MaxPool2d", "StatefulPartitionedCall/sequential_1/xception_1/batch_normalization_2_1/batchnorm/add_1"], "attr": {"T": {"type": "DT_FLOAT"}}}, {"name": "StatefulPartitionedCall/sequential_1/xception_1/block5_sepconv1_act_1/Relu", "op": "Relu", "input": ["StatefulPartitionedCall/sequential_1/xception_1/add_2_1/Add"], "attr": {"T": {"type": "DT_FLOAT"}}}, {"name": "StatefulPartitionedCall/sequential_1/xception_1/block5_sepconv1_1/separable_conv2d/depthwise", "op": "DepthwiseConv2dNative", "input": ["StatefulPartitionedCall/sequential_1/xception_1/block5_sepconv1_act_1/Relu", "StatefulPartitionedCall/sequential_1/xception_1/block5_sepconv1_1/separable_conv2d/ReadVariableOp"], "attr": {"strides": {"list": {"i": ["1", "1", "1", "1"]}}, "data_format": {"s": "TkhXQw=="}, "explicit_paddings": {"list": {}}, "T": {"type": "DT_FLOAT"}, "padding": {"s": "U0FNRQ=="}, "dilations": {"list": {"i": ["1", "1", "1", "1"]}}}}, {"name": "StatefulPartitionedCall/sequential_1/xception_1/block5_sepconv2_act_1/Relu", "op": "_FusedConv2D", "input": ["StatefulPartitionedCall/sequential_1/xception_1/block5_sepconv1_1/separable_conv2d/depthwise", "StatefulPartitionedCall/sequential_1/xception_1/block5_sepconv1_1/separable_conv2d/merged_input", "StatefulPartitionedCall/sequential_1/xception_1/block5_sepconv1_bn_1/batchnorm/sub"], "device": "/device:CPU:0", "attr": {"use_cudnn_on_gpu": {"b": true}, "explicit_paddings": {"list": {}}, "epsilon": {"f": 0.0}, "dilations": {"list": {"i": ["1", "1", "1", "1"]}}, "leakyrelu_alpha": {"f": 0.2}, "data_format": {"s": "TkhXQw=="}, "padding": {"s": "VkFMSUQ="}, "num_args": {"i": "1"}, "fused_ops": {"list": {"s": ["Qmlhc0FkZA==", "UmVsdQ=="]}}, "strides": {"list": {"i": ["1", "1", "1", "1"]}}, "filter_format": {"s": "SFdJTw=="}, "TArgs": {"list": {"type": ["DT_FLOAT"]}}, "T": {"type": "DT_FLOAT"}, "num_host_args": {"i": "0"}}}, {"name": "StatefulPartitionedCall/sequential_1/xception_1/block5_sepconv2_1/separable_conv2d/depthwise", "op": "DepthwiseConv2dNative", "input": ["StatefulPartitionedCall/sequential_1/xception_1/block5_sepconv2_act_1/Relu", "StatefulPartitionedCall/sequential_1/xception_1/block5_sepconv2_1/separable_conv2d/ReadVariableOp"], "attr": {"dilations": {"list": {"i": ["1", "1", "1", "1"]}}, "padding": {"s": "U0FNRQ=="}, "explicit_paddings": {"list": {}}, "strides": {"list": {"i": ["1", "1", "1", "1"]}}, "T": {"type": "DT_FLOAT"}, "data_format": {"s": "TkhXQw=="}}}, {"name": "StatefulPartitionedCall/sequential_1/xception_1/block5_sepconv3_act_1/Relu", "op": "_FusedConv2D", "input": ["StatefulPartitionedCall/sequential_1/xception_1/block5_sepconv2_1/separable_conv2d/depthwise", "StatefulPartitionedCall/sequential_1/xception_1/block5_sepconv2_1/separable_conv2d/merged_input", "StatefulPartitionedCall/sequential_1/xception_1/block5_sepconv2_bn_1/batchnorm/sub"], "device": "/device:CPU:0", "attr": {"use_cudnn_on_gpu": {"b": true}, "data_format": {"s": "TkhXQw=="}, "fused_ops": {"list": {"s": ["Qmlhc0FkZA==", "UmVsdQ=="]}}, "T": {"type": "DT_FLOAT"}, "leakyrelu_alpha": {"f": 0.2}, "num_host_args": {"i": "0"}, "strides": {"list": {"i": ["1", "1", "1", "1"]}}, "filter_format": {"s": "SFdJTw=="}, "padding": {"s": "VkFMSUQ="}, "num_args": {"i": "1"}, "TArgs": {"list": {"type": ["DT_FLOAT"]}}, "epsilon": {"f": 0.0}, "explicit_paddings": {"list": {}}, "dilations": {"list": {"i": ["1", "1", "1", "1"]}}}}, {"name": "StatefulPartitionedCall/sequential_1/xception_1/block5_sepconv3_1/separable_conv2d/depthwise", "op": "DepthwiseConv2dNative", "input": ["StatefulPartitionedCall/sequential_1/xception_1/block5_sepconv3_act_1/Relu", "StatefulPartitionedCall/sequential_1/xception_1/block5_sepconv3_1/separable_conv2d/ReadVariableOp"], "attr": {"padding": {"s": "U0FNRQ=="}, "data_format": {"s": "TkhXQw=="}, "T": {"type": "DT_FLOAT"}, "explicit_paddings": {"list": {}}, "strides": {"list": {"i": ["1", "1", "1", "1"]}}, "dilations": {"list": {"i": ["1", "1", "1", "1"]}}}}, {"name": "StatefulPartitionedCall/sequential_1/xception_1/block5_sepconv3_bn_1/batchnorm/add_1", "op": "_FusedConv2D", "input": ["StatefulPartitionedCall/sequential_1/xception_1/block5_sepconv3_1/separable_conv2d/depthwise", "StatefulPartitionedCall/sequential_1/xception_1/block5_sepconv3_1/separable_conv2d/merged_input", "StatefulPartitionedCall/sequential_1/xception_1/block5_sepconv3_bn_1/batchnorm/sub"], "device": "/device:CPU:0", "attr": {"leakyrelu_alpha": {"f": 0.2}, "filter_format": {"s": "SFdJTw=="}, "fused_ops": {"list": {"s": ["Qmlhc0FkZA=="]}}, "num_host_args": {"i": "0"}, "dilations": {"list": {"i": ["1", "1", "1", "1"]}}, "TArgs": {"list": {"type": ["DT_FLOAT"]}}, "epsilon": {"f": 0.0}, "explicit_paddings": {"list": {}}, "padding": {"s": "VkFMSUQ="}, "strides": {"list": {"i": ["1", "1", "1", "1"]}}, "num_args": {"i": "1"}, "data_format": {"s": "TkhXQw=="}, "use_cudnn_on_gpu": {"b": true}, "T": {"type": "DT_FLOAT"}}}, {"name": "StatefulPartitionedCall/sequential_1/xception_1/add_3_1/Add", "op": "AddV2", "input": ["StatefulPartitionedCall/sequential_1/xception_1/block5_sepconv3_bn_1/batchnorm/add_1", "StatefulPartitionedCall/sequential_1/xception_1/add_2_1/Add"], "attr": {"T": {"type": "DT_FLOAT"}}}, {"name": "StatefulPartitionedCall/sequential_1/xception_1/block6_sepconv1_act_1/Relu", "op": "Relu", "input": ["StatefulPartitionedCall/sequential_1/xception_1/add_3_1/Add"], "attr": {"T": {"type": "DT_FLOAT"}}}, {"name": "StatefulPartitionedCall/sequential_1/xception_1/block6_sepconv1_1/separable_conv2d/depthwise", "op": "DepthwiseConv2dNative", "input": ["StatefulPartitionedCall/sequential_1/xception_1/block6_sepconv1_act_1/Relu", "StatefulPartitionedCall/sequential_1/xception_1/block6_sepconv1_1/separable_conv2d/ReadVariableOp"], "attr": {"dilations": {"list": {"i": ["1", "1", "1", "1"]}}, "T": {"type": "DT_FLOAT"}, "data_format": {"s": "TkhXQw=="}, "strides": {"list": {"i": ["1", "1", "1", "1"]}}, "explicit_paddings": {"list": {}}, "padding": {"s": "U0FNRQ=="}}}, {"name": "StatefulPartitionedCall/sequential_1/xception_1/block6_sepconv2_act_1/Relu", "op": "_FusedConv2D", "input": ["StatefulPartitionedCall/sequential_1/xception_1/block6_sepconv1_1/separable_conv2d/depthwise", "StatefulPartitionedCall/sequential_1/xception_1/block6_sepconv1_1/separable_conv2d/merged_input", "StatefulPartitionedCall/sequential_1/xception_1/block6_sepconv1_bn_1/batchnorm/sub"], "device": "/device:CPU:0", "attr": {"num_host_args": {"i": "0"}, "strides": {"list": {"i": ["1", "1", "1", "1"]}}, "leakyrelu_alpha": {"f": 0.2}, "T": {"type": "DT_FLOAT"}, "TArgs": {"list": {"type": ["DT_FLOAT"]}}, "fused_ops": {"list": {"s": ["Qmlhc0FkZA==", "UmVsdQ=="]}}, "num_args": {"i": "1"}, "epsilon": {"f": 0.0}, "padding": {"s": "VkFMSUQ="}, "use_cudnn_on_gpu": {"b": true}, "filter_format": {"s": "SFdJTw=="}, "data_format": {"s": "TkhXQw=="}, "explicit_paddings": {"list": {}}, "dilations": {"list": {"i": ["1", "1", "1", "1"]}}}}, {"name": "StatefulPartitionedCall/sequential_1/xception_1/block6_sepconv2_1/separable_conv2d/depthwise", "op": "DepthwiseConv2dNative", "input": ["StatefulPartitionedCall/sequential_1/xception_1/block6_sepconv2_act_1/Relu", "StatefulPartitionedCall/sequential_1/xception_1/block6_sepconv2_1/separable_conv2d/ReadVariableOp"], "attr": {"padding": {"s": "U0FNRQ=="}, "strides": {"list": {"i": ["1", "1", "1", "1"]}}, "data_format": {"s": "TkhXQw=="}, "T": {"type": "DT_FLOAT"}, "dilations": {"list": {"i": ["1", "1", "1", "1"]}}, "explicit_paddings": {"list": {}}}}, {"name": "StatefulPartitionedCall/sequential_1/xception_1/block6_sepconv3_act_1/Relu", "op": "_FusedConv2D", "input": ["StatefulPartitionedCall/sequential_1/xception_1/block6_sepconv2_1/separable_conv2d/depthwise", "StatefulPartitionedCall/sequential_1/xception_1/block6_sepconv2_1/separable_conv2d/merged_input", "StatefulPartitionedCall/sequential_1/xception_1/block6_sepconv2_bn_1/batchnorm/sub"], "device": "/device:CPU:0", "attr": {"T": {"type": "DT_FLOAT"}, "TArgs": {"list": {"type": ["DT_FLOAT"]}}, "epsilon": {"f": 0.0}, "dilations": {"list": {"i": ["1", "1", "1", "1"]}}, "explicit_paddings": {"list": {}}, "filter_format": {"s": "SFdJTw=="}, "leakyrelu_alpha": {"f": 0.2}, "strides": {"list": {"i": ["1", "1", "1", "1"]}}, "data_format": {"s": "TkhXQw=="}, "num_host_args": {"i": "0"}, "use_cudnn_on_gpu": {"b": true}, "padding": {"s": "VkFMSUQ="}, "fused_ops": {"list": {"s": ["Qmlhc0FkZA==", "UmVsdQ=="]}}, "num_args": {"i": "1"}}}, {"name": "StatefulPartitionedCall/sequential_1/xception_1/block6_sepconv3_1/separable_conv2d/depthwise", "op": "DepthwiseConv2dNative", "input": ["StatefulPartitionedCall/sequential_1/xception_1/block6_sepconv3_act_1/Relu", "StatefulPartitionedCall/sequential_1/xception_1/block6_sepconv3_1/separable_conv2d/ReadVariableOp"], "attr": {"strides": {"list": {"i": ["1", "1", "1", "1"]}}, "padding": {"s": "U0FNRQ=="}, "explicit_paddings": {"list": {}}, "dilations": {"list": {"i": ["1", "1", "1", "1"]}}, "T": {"type": "DT_FLOAT"}, "data_format": {"s": "TkhXQw=="}}}, {"name": "StatefulPartitionedCall/sequential_1/xception_1/block6_sepconv3_bn_1/batchnorm/add_1", "op": "_FusedConv2D", "input": ["StatefulPartitionedCall/sequential_1/xception_1/block6_sepconv3_1/separable_conv2d/depthwise", "StatefulPartitionedCall/sequential_1/xception_1/block6_sepconv3_1/separable_conv2d/merged_input", "StatefulPartitionedCall/sequential_1/xception_1/block6_sepconv3_bn_1/batchnorm/sub"], "device": "/device:CPU:0", "attr": {"dilations": {"list": {"i": ["1", "1", "1", "1"]}}, "explicit_paddings": {"list": {}}, "filter_format": {"s": "SFdJTw=="}, "use_cudnn_on_gpu": {"b": true}, "fused_ops": {"list": {"s": ["Qmlhc0FkZA=="]}}, "epsilon": {"f": 0.0}, "num_args": {"i": "1"}, "TArgs": {"list": {"type": ["DT_FLOAT"]}}, "data_format": {"s": "TkhXQw=="}, "padding": {"s": "VkFMSUQ="}, "T": {"type": "DT_FLOAT"}, "num_host_args": {"i": "0"}, "strides": {"list": {"i": ["1", "1", "1", "1"]}}, "leakyrelu_alpha": {"f": 0.2}}}, {"name": "StatefulPartitionedCall/sequential_1/xception_1/add_4_1/Add", "op": "AddV2", "input": ["StatefulPartitionedCall/sequential_1/xception_1/block6_sepconv3_bn_1/batchnorm/add_1", "StatefulPartitionedCall/sequential_1/xception_1/add_3_1/Add"], "attr": {"T": {"type": "DT_FLOAT"}}}, {"name": "StatefulPartitionedCall/sequential_1/xception_1/block7_sepconv1_act_1/Relu", "op": "Relu", "input": ["StatefulPartitionedCall/sequential_1/xception_1/add_4_1/Add"], "attr": {"T": {"type": "DT_FLOAT"}}}, {"name": "StatefulPartitionedCall/sequential_1/xception_1/block7_sepconv1_1/separable_conv2d/depthwise", "op": "DepthwiseConv2dNative", "input": ["StatefulPartitionedCall/sequential_1/xception_1/block7_sepconv1_act_1/Relu", "StatefulPartitionedCall/sequential_1/xception_1/block7_sepconv1_1/separable_conv2d/ReadVariableOp"], "attr": {"dilations": {"list": {"i": ["1", "1", "1", "1"]}}, "data_format": {"s": "TkhXQw=="}, "padding": {"s": "U0FNRQ=="}, "T": {"type": "DT_FLOAT"}, "strides": {"list": {"i": ["1", "1", "1", "1"]}}, "explicit_paddings": {"list": {}}}}, {"name": "StatefulPartitionedCall/sequential_1/xception_1/block7_sepconv2_act_1/Relu", "op": "_FusedConv2D", "input": ["StatefulPartitionedCall/sequential_1/xception_1/block7_sepconv1_1/separable_conv2d/depthwise", "StatefulPartitionedCall/sequential_1/xception_1/block7_sepconv1_1/separable_conv2d/merged_input", "StatefulPartitionedCall/sequential_1/xception_1/block7_sepconv1_bn_1/batchnorm/sub"], "device": "/device:CPU:0", "attr": {"padding": {"s": "VkFMSUQ="}, "num_args": {"i": "1"}, "num_host_args": {"i": "0"}, "TArgs": {"list": {"type": ["DT_FLOAT"]}}, "use_cudnn_on_gpu": {"b": true}, "fused_ops": {"list": {"s": ["Qmlhc0FkZA==", "UmVsdQ=="]}}, "strides": {"list": {"i": ["1", "1", "1", "1"]}}, "epsilon": {"f": 0.0}, "leakyrelu_alpha": {"f": 0.2}, "filter_format": {"s": "SFdJTw=="}, "dilations": {"list": {"i": ["1", "1", "1", "1"]}}, "explicit_paddings": {"list": {}}, "T": {"type": "DT_FLOAT"}, "data_format": {"s": "TkhXQw=="}}}, {"name": "StatefulPartitionedCall/sequential_1/xception_1/block7_sepconv2_1/separable_conv2d/depthwise", "op": "DepthwiseConv2dNative", "input": ["StatefulPartitionedCall/sequential_1/xception_1/block7_sepconv2_act_1/Relu", "StatefulPartitionedCall/sequential_1/xception_1/block7_sepconv2_1/separable_conv2d/ReadVariableOp"], "attr": {"strides": {"list": {"i": ["1", "1", "1", "1"]}}, "data_format": {"s": "TkhXQw=="}, "explicit_paddings": {"list": {}}, "dilations": {"list": {"i": ["1", "1", "1", "1"]}}, "padding": {"s": "U0FNRQ=="}, "T": {"type": "DT_FLOAT"}}}, {"name": "StatefulPartitionedCall/sequential_1/xception_1/block7_sepconv3_act_1/Relu", "op": "_FusedConv2D", "input": ["StatefulPartitionedCall/sequential_1/xception_1/block7_sepconv2_1/separable_conv2d/depthwise", "StatefulPartitionedCall/sequential_1/xception_1/block7_sepconv2_1/separable_conv2d/merged_input", "StatefulPartitionedCall/sequential_1/xception_1/block7_sepconv2_bn_1/batchnorm/sub"], "device": "/device:CPU:0", "attr": {"filter_format": {"s": "SFdJTw=="}, "strides": {"list": {"i": ["1", "1", "1", "1"]}}, "use_cudnn_on_gpu": {"b": true}, "padding": {"s": "VkFMSUQ="}, "epsilon": {"f": 0.0}, "explicit_paddings": {"list": {}}, "TArgs": {"list": {"type": ["DT_FLOAT"]}}, "data_format": {"s": "TkhXQw=="}, "num_host_args": {"i": "0"}, "leakyrelu_alpha": {"f": 0.2}, "dilations": {"list": {"i": ["1", "1", "1", "1"]}}, "T": {"type": "DT_FLOAT"}, "num_args": {"i": "1"}, "fused_ops": {"list": {"s": ["Qmlhc0FkZA==", "UmVsdQ=="]}}}}, {"name": "StatefulPartitionedCall/sequential_1/xception_1/block7_sepconv3_1/separable_conv2d/depthwise", "op": "DepthwiseConv2dNative", "input": ["StatefulPartitionedCall/sequential_1/xception_1/block7_sepconv3_act_1/Relu", "StatefulPartitionedCall/sequential_1/xception_1/block7_sepconv3_1/separable_conv2d/ReadVariableOp"], "attr": {"strides": {"list": {"i": ["1", "1", "1", "1"]}}, "T": {"type": "DT_FLOAT"}, "data_format": {"s": "TkhXQw=="}, "dilations": {"list": {"i": ["1", "1", "1", "1"]}}, "explicit_paddings": {"list": {}}, "padding": {"s": "U0FNRQ=="}}}, {"name": "StatefulPartitionedCall/sequential_1/xception_1/block7_sepconv3_bn_1/batchnorm/add_1", "op": "_FusedConv2D", "input": ["StatefulPartitionedCall/sequential_1/xception_1/block7_sepconv3_1/separable_conv2d/depthwise", "StatefulPartitionedCall/sequential_1/xception_1/block7_sepconv3_1/separable_conv2d/merged_input", "StatefulPartitionedCall/sequential_1/xception_1/block7_sepconv3_bn_1/batchnorm/sub"], "device": "/device:CPU:0", "attr": {"T": {"type": "DT_FLOAT"}, "num_host_args": {"i": "0"}, "strides": {"list": {"i": ["1", "1", "1", "1"]}}, "explicit_paddings": {"list": {}}, "fused_ops": {"list": {"s": ["Qmlhc0FkZA=="]}}, "filter_format": {"s": "SFdJTw=="}, "data_format": {"s": "TkhXQw=="}, "leakyrelu_alpha": {"f": 0.2}, "num_args": {"i": "1"}, "TArgs": {"list": {"type": ["DT_FLOAT"]}}, "padding": {"s": "VkFMSUQ="}, "epsilon": {"f": 0.0}, "dilations": {"list": {"i": ["1", "1", "1", "1"]}}, "use_cudnn_on_gpu": {"b": true}}}, {"name": "StatefulPartitionedCall/sequential_1/xception_1/add_5_1/Add", "op": "AddV2", "input": ["StatefulPartitionedCall/sequential_1/xception_1/block7_sepconv3_bn_1/batchnorm/add_1", "StatefulPartitionedCall/sequential_1/xception_1/add_4_1/Add"], "attr": {"T": {"type": "DT_FLOAT"}}}, {"name": "StatefulPartitionedCall/sequential_1/xception_1/block8_sepconv1_act_1/Relu", "op": "Relu", "input": ["StatefulPartitionedCall/sequential_1/xception_1/add_5_1/Add"], "attr": {"T": {"type": "DT_FLOAT"}}}, {"name": "StatefulPartitionedCall/sequential_1/xception_1/block8_sepconv1_1/separable_conv2d/depthwise", "op": "DepthwiseConv2dNative", "input": ["StatefulPartitionedCall/sequential_1/xception_1/block8_sepconv1_act_1/Relu", "StatefulPartitionedCall/sequential_1/xception_1/block8_sepconv1_1/separable_conv2d/ReadVariableOp"], "attr": {"data_format": {"s": "TkhXQw=="}, "T": {"type": "DT_FLOAT"}, "dilations": {"list": {"i": ["1", "1", "1", "1"]}}, "strides": {"list": {"i": ["1", "1", "1", "1"]}}, "explicit_paddings": {"list": {}}, "padding": {"s": "U0FNRQ=="}}}, {"name": "StatefulPartitionedCall/sequential_1/xception_1/block8_sepconv2_act_1/Relu", "op": "_FusedConv2D", "input": ["StatefulPartitionedCall/sequential_1/xception_1/block8_sepconv1_1/separable_conv2d/depthwise", "StatefulPartitionedCall/sequential_1/xception_1/block8_sepconv1_1/separable_conv2d/merged_input", "StatefulPartitionedCall/sequential_1/xception_1/block8_sepconv1_bn_1/batchnorm/sub"], "device": "/device:CPU:0", "attr": {"dilations": {"list": {"i": ["1", "1", "1", "1"]}}, "filter_format": {"s": "SFdJTw=="}, "num_args": {"i": "1"}, "data_format": {"s": "TkhXQw=="}, "epsilon": {"f": 0.0}, "explicit_paddings": {"list": {}}, "TArgs": {"list": {"type": ["DT_FLOAT"]}}, "use_cudnn_on_gpu": {"b": true}, "leakyrelu_alpha": {"f": 0.2}, "num_host_args": {"i": "0"}, "fused_ops": {"list": {"s": ["Qmlhc0FkZA==", "UmVsdQ=="]}}, "T": {"type": "DT_FLOAT"}, "padding": {"s": "VkFMSUQ="}, "strides": {"list": {"i": ["1", "1", "1", "1"]}}}}, {"name": "StatefulPartitionedCall/sequential_1/xception_1/block8_sepconv2_1/separable_conv2d/depthwise", "op": "DepthwiseConv2dNative", "input": ["StatefulPartitionedCall/sequential_1/xception_1/block8_sepconv2_act_1/Relu", "StatefulPartitionedCall/sequential_1/xception_1/block8_sepconv2_1/separable_conv2d/ReadVariableOp"], "attr": {"T": {"type": "DT_FLOAT"}, "data_format": {"s": "TkhXQw=="}, "explicit_paddings": {"list": {}}, "strides": {"list": {"i": ["1", "1", "1", "1"]}}, "dilations": {"list": {"i": ["1", "1", "1", "1"]}}, "padding": {"s": "U0FNRQ=="}}}, {"name": "StatefulPartitionedCall/sequential_1/xception_1/block8_sepconv3_act_1/Relu", "op": "_FusedConv2D", "input": ["StatefulPartitionedCall/sequential_1/xception_1/block8_sepconv2_1/separable_conv2d/depthwise", "StatefulPartitionedCall/sequential_1/xception_1/block8_sepconv2_1/separable_conv2d/merged_input", "StatefulPartitionedCall/sequential_1/xception_1/block8_sepconv2_bn_1/batchnorm/sub"], "device": "/device:CPU:0", "attr": {"fused_ops": {"list": {"s": ["Qmlhc0FkZA==", "UmVsdQ=="]}}, "filter_format": {"s": "SFdJTw=="}, "padding": {"s": "VkFMSUQ="}, "strides": {"list": {"i": ["1", "1", "1", "1"]}}, "T": {"type": "DT_FLOAT"}, "TArgs": {"list": {"type": ["DT_FLOAT"]}}, "num_args": {"i": "1"}, "use_cudnn_on_gpu": {"b": true}, "num_host_args": {"i": "0"}, "explicit_paddings": {"list": {}}, "leakyrelu_alpha": {"f": 0.2}, "data_format": {"s": "TkhXQw=="}, "dilations": {"list": {"i": ["1", "1", "1", "1"]}}, "epsilon": {"f": 0.0}}}, {"name": "StatefulPartitionedCall/sequential_1/xception_1/block8_sepconv3_1/separable_conv2d/depthwise", "op": "DepthwiseConv2dNative", "input": ["StatefulPartitionedCall/sequential_1/xception_1/block8_sepconv3_act_1/Relu", "StatefulPartitionedCall/sequential_1/xception_1/block8_sepconv3_1/separable_conv2d/ReadVariableOp"], "attr": {"explicit_paddings": {"list": {}}, "T": {"type": "DT_FLOAT"}, "padding": {"s": "U0FNRQ=="}, "dilations": {"list": {"i": ["1", "1", "1", "1"]}}, "data_format": {"s": "TkhXQw=="}, "strides": {"list": {"i": ["1", "1", "1", "1"]}}}}, {"name": "StatefulPartitionedCall/sequential_1/xception_1/block8_sepconv3_bn_1/batchnorm/add_1", "op": "_FusedConv2D", "input": ["StatefulPartitionedCall/sequential_1/xception_1/block8_sepconv3_1/separable_conv2d/depthwise", "StatefulPartitionedCall/sequential_1/xception_1/block8_sepconv3_1/separable_conv2d/merged_input", "StatefulPartitionedCall/sequential_1/xception_1/block8_sepconv3_bn_1/batchnorm/sub"], "device": "/device:CPU:0", "attr": {"use_cudnn_on_gpu": {"b": true}, "strides": {"list": {"i": ["1", "1", "1", "1"]}}, "epsilon": {"f": 0.0}, "padding": {"s": "VkFMSUQ="}, "dilations": {"list": {"i": ["1", "1", "1", "1"]}}, "data_format": {"s": "TkhXQw=="}, "T": {"type": "DT_FLOAT"}, "num_args": {"i": "1"}, "explicit_paddings": {"list": {}}, "filter_format": {"s": "SFdJTw=="}, "num_host_args": {"i": "0"}, "fused_ops": {"list": {"s": ["Qmlhc0FkZA=="]}}, "leakyrelu_alpha": {"f": 0.2}, "TArgs": {"list": {"type": ["DT_FLOAT"]}}}}, {"name": "StatefulPartitionedCall/sequential_1/xception_1/add_6_1/Add", "op": "AddV2", "input": ["StatefulPartitionedCall/sequential_1/xception_1/block8_sepconv3_bn_1/batchnorm/add_1", "StatefulPartitionedCall/sequential_1/xception_1/add_5_1/Add"], "attr": {"T": {"type": "DT_FLOAT"}}}, {"name": "StatefulPartitionedCall/sequential_1/xception_1/block9_sepconv1_act_1/Relu", "op": "Relu", "input": ["StatefulPartitionedCall/sequential_1/xception_1/add_6_1/Add"], "attr": {"T": {"type": "DT_FLOAT"}}}, {"name": "StatefulPartitionedCall/sequential_1/xception_1/block9_sepconv1_1/separable_conv2d/depthwise", "op": "DepthwiseConv2dNative", "input": ["StatefulPartitionedCall/sequential_1/xception_1/block9_sepconv1_act_1/Relu", "StatefulPartitionedCall/sequential_1/xception_1/block9_sepconv1_1/separable_conv2d/ReadVariableOp"], "attr": {"T": {"type": "DT_FLOAT"}, "explicit_paddings": {"list": {}}, "data_format": {"s": "TkhXQw=="}, "padding": {"s": "U0FNRQ=="}, "strides": {"list": {"i": ["1", "1", "1", "1"]}}, "dilations": {"list": {"i": ["1", "1", "1", "1"]}}}}, {"name": "StatefulPartitionedCall/sequential_1/xception_1/block9_sepconv2_act_1/Relu", "op": "_FusedConv2D", "input": ["StatefulPartitionedCall/sequential_1/xception_1/block9_sepconv1_1/separable_conv2d/depthwise", "StatefulPartitionedCall/sequential_1/xception_1/block9_sepconv1_1/separable_conv2d/merged_input", "StatefulPartitionedCall/sequential_1/xception_1/block9_sepconv1_bn_1/batchnorm/sub"], "device": "/device:CPU:0", "attr": {"dilations": {"list": {"i": ["1", "1", "1", "1"]}}, "data_format": {"s": "TkhXQw=="}, "fused_ops": {"list": {"s": ["Qmlhc0FkZA==", "UmVsdQ=="]}}, "use_cudnn_on_gpu": {"b": true}, "padding": {"s": "VkFMSUQ="}, "leakyrelu_alpha": {"f": 0.2}, "TArgs": {"list": {"type": ["DT_FLOAT"]}}, "num_args": {"i": "1"}, "filter_format": {"s": "SFdJTw=="}, "strides": {"list": {"i": ["1", "1", "1", "1"]}}, "T": {"type": "DT_FLOAT"}, "explicit_paddings": {"list": {}}, "epsilon": {"f": 0.0}, "num_host_args": {"i": "0"}}}, {"name": "StatefulPartitionedCall/sequential_1/xception_1/block9_sepconv2_1/separable_conv2d/depthwise", "op": "DepthwiseConv2dNative", "input": ["StatefulPartitionedCall/sequential_1/xception_1/block9_sepconv2_act_1/Relu", "StatefulPartitionedCall/sequential_1/xception_1/block9_sepconv2_1/separable_conv2d/ReadVariableOp"], "attr": {"data_format": {"s": "TkhXQw=="}, "strides": {"list": {"i": ["1", "1", "1", "1"]}}, "padding": {"s": "U0FNRQ=="}, "dilations": {"list": {"i": ["1", "1", "1", "1"]}}, "explicit_paddings": {"list": {}}, "T": {"type": "DT_FLOAT"}}}, {"name": "StatefulPartitionedCall/sequential_1/xception_1/block9_sepconv3_act_1/Relu", "op": "_FusedConv2D", "input": ["StatefulPartitionedCall/sequential_1/xception_1/block9_sepconv2_1/separable_conv2d/depthwise", "StatefulPartitionedCall/sequential_1/xception_1/block9_sepconv2_1/separable_conv2d/merged_input", "StatefulPartitionedCall/sequential_1/xception_1/block9_sepconv2_bn_1/batchnorm/sub"], "device": "/device:CPU:0", "attr": {"strides": {"list": {"i": ["1", "1", "1", "1"]}}, "fused_ops": {"list": {"s": ["Qmlhc0FkZA==", "UmVsdQ=="]}}, "filter_format": {"s": "SFdJTw=="}, "dilations": {"list": {"i": ["1", "1", "1", "1"]}}, "explicit_paddings": {"list": {}}, "leakyrelu_alpha": {"f": 0.2}, "num_host_args": {"i": "0"}, "use_cudnn_on_gpu": {"b": true}, "epsilon": {"f": 0.0}, "data_format": {"s": "TkhXQw=="}, "TArgs": {"list": {"type": ["DT_FLOAT"]}}, "num_args": {"i": "1"}, "T": {"type": "DT_FLOAT"}, "padding": {"s": "VkFMSUQ="}}}, {"name": "StatefulPartitionedCall/sequential_1/xception_1/block9_sepconv3_1/separable_conv2d/depthwise", "op": "DepthwiseConv2dNative", "input": ["StatefulPartitionedCall/sequential_1/xception_1/block9_sepconv3_act_1/Relu", "StatefulPartitionedCall/sequential_1/xception_1/block9_sepconv3_1/separable_conv2d/ReadVariableOp"], "attr": {"data_format": {"s": "TkhXQw=="}, "explicit_paddings": {"list": {}}, "T": {"type": "DT_FLOAT"}, "dilations": {"list": {"i": ["1", "1", "1", "1"]}}, "strides": {"list": {"i": ["1", "1", "1", "1"]}}, "padding": {"s": "U0FNRQ=="}}}, {"name": "StatefulPartitionedCall/sequential_1/xception_1/block9_sepconv3_bn_1/batchnorm/add_1", "op": "_FusedConv2D", "input": ["StatefulPartitionedCall/sequential_1/xception_1/block9_sepconv3_1/separable_conv2d/depthwise", "StatefulPartitionedCall/sequential_1/xception_1/block9_sepconv3_1/separable_conv2d/merged_input", "StatefulPartitionedCall/sequential_1/xception_1/block9_sepconv3_bn_1/batchnorm/sub"], "device": "/device:CPU:0", "attr": {"leakyrelu_alpha": {"f": 0.2}, "num_args": {"i": "1"}, "T": {"type": "DT_FLOAT"}, "TArgs": {"list": {"type": ["DT_FLOAT"]}}, "strides": {"list": {"i": ["1", "1", "1", "1"]}}, "fused_ops": {"list": {"s": ["Qmlhc0FkZA=="]}}, "use_cudnn_on_gpu": {"b": true}, "epsilon": {"f": 0.0}, "num_host_args": {"i": "0"}, "dilations": {"list": {"i": ["1", "1", "1", "1"]}}, "padding": {"s": "VkFMSUQ="}, "explicit_paddings": {"list": {}}, "data_format": {"s": "TkhXQw=="}, "filter_format": {"s": "SFdJTw=="}}}, {"name": "StatefulPartitionedCall/sequential_1/xception_1/add_7_1/Add", "op": "AddV2", "input": ["StatefulPartitionedCall/sequential_1/xception_1/block9_sepconv3_bn_1/batchnorm/add_1", "StatefulPartitionedCall/sequential_1/xception_1/add_6_1/Add"], "attr": {"T": {"type": "DT_FLOAT"}}}, {"name": "StatefulPartitionedCall/sequential_1/xception_1/block10_sepconv1_act_1/Relu", "op": "Relu", "input": ["StatefulPartitionedCall/sequential_1/xception_1/add_7_1/Add"], "attr": {"T": {"type": "DT_FLOAT"}}}, {"name": "StatefulPartitionedCall/sequential_1/xception_1/block10_sepconv1_1/separable_conv2d/depthwise", "op": "DepthwiseConv2dNative", "input": ["StatefulPartitionedCall/sequential_1/xception_1/block10_sepconv1_act_1/Relu", "StatefulPartitionedCall/sequential_1/xception_1/block10_sepconv1_1/separable_conv2d/ReadVariableOp"], "attr": {"T": {"type": "DT_FLOAT"}, "explicit_paddings": {"list": {}}, "strides": {"list": {"i": ["1", "1", "1", "1"]}}, "dilations": {"list": {"i": ["1", "1", "1", "1"]}}, "data_format": {"s": "TkhXQw=="}, "padding": {"s": "U0FNRQ=="}}}, {"name": "StatefulPartitionedCall/sequential_1/xception_1/block10_sepconv2_act_1/Relu", "op": "_FusedConv2D", "input": ["StatefulPartitionedCall/sequential_1/xception_1/block10_sepconv1_1/separable_conv2d/depthwise", "StatefulPartitionedCall/sequential_1/xception_1/block10_sepconv1_1/separable_conv2d/merged_input", "StatefulPartitionedCall/sequential_1/xception_1/block10_sepconv1_bn_1/batchnorm/sub"], "device": "/device:CPU:0", "attr": {"strides": {"list": {"i": ["1", "1", "1", "1"]}}, "epsilon": {"f": 0.0}, "fused_ops": {"list": {"s": ["Qmlhc0FkZA==", "UmVsdQ=="]}}, "TArgs": {"list": {"type": ["DT_FLOAT"]}}, "use_cudnn_on_gpu": {"b": true}, "filter_format": {"s": "SFdJTw=="}, "explicit_paddings": {"list": {}}, "num_host_args": {"i": "0"}, "num_args": {"i": "1"}, "leakyrelu_alpha": {"f": 0.2}, "dilations": {"list": {"i": ["1", "1", "1", "1"]}}, "T": {"type": "DT_FLOAT"}, "padding": {"s": "VkFMSUQ="}, "data_format": {"s": "TkhXQw=="}}}, {"name": "StatefulPartitionedCall/sequential_1/xception_1/block10_sepconv2_1/separable_conv2d/depthwise", "op": "DepthwiseConv2dNative", "input": ["StatefulPartitionedCall/sequential_1/xception_1/block10_sepconv2_act_1/Relu", "StatefulPartitionedCall/sequential_1/xception_1/block10_sepconv2_1/separable_conv2d/ReadVariableOp"], "attr": {"dilations": {"list": {"i": ["1", "1", "1", "1"]}}, "data_format": {"s": "TkhXQw=="}, "strides": {"list": {"i": ["1", "1", "1", "1"]}}, "T": {"type": "DT_FLOAT"}, "padding": {"s": "U0FNRQ=="}, "explicit_paddings": {"list": {}}}}, {"name": "StatefulPartitionedCall/sequential_1/xception_1/block10_sepconv3_act_1/Relu", "op": "_FusedConv2D", "input": ["StatefulPartitionedCall/sequential_1/xception_1/block10_sepconv2_1/separable_conv2d/depthwise", "StatefulPartitionedCall/sequential_1/xception_1/block10_sepconv2_1/separable_conv2d/merged_input", "StatefulPartitionedCall/sequential_1/xception_1/block10_sepconv2_bn_1/batchnorm/sub"], "device": "/device:CPU:0", "attr": {"strides": {"list": {"i": ["1", "1", "1", "1"]}}, "explicit_paddings": {"list": {}}, "data_format": {"s": "TkhXQw=="}, "padding": {"s": "VkFMSUQ="}, "num_host_args": {"i": "0"}, "filter_format": {"s": "SFdJTw=="}, "T": {"type": "DT_FLOAT"}, "use_cudnn_on_gpu": {"b": true}, "TArgs": {"list": {"type": ["DT_FLOAT"]}}, "leakyrelu_alpha": {"f": 0.2}, "fused_ops": {"list": {"s": ["Qmlhc0FkZA==", "UmVsdQ=="]}}, "dilations": {"list": {"i": ["1", "1", "1", "1"]}}, "num_args": {"i": "1"}, "epsilon": {"f": 0.0}}}, {"name": "StatefulPartitionedCall/sequential_1/xception_1/block10_sepconv3_1/separable_conv2d/depthwise", "op": "DepthwiseConv2dNative", "input": ["StatefulPartitionedCall/sequential_1/xception_1/block10_sepconv3_act_1/Relu", "StatefulPartitionedCall/sequential_1/xception_1/block10_sepconv3_1/separable_conv2d/ReadVariableOp"], "attr": {"strides": {"list": {"i": ["1", "1", "1", "1"]}}, "data_format": {"s": "TkhXQw=="}, "dilations": {"list": {"i": ["1", "1", "1", "1"]}}, "padding": {"s": "U0FNRQ=="}, "T": {"type": "DT_FLOAT"}, "explicit_paddings": {"list": {}}}}, {"name": "StatefulPartitionedCall/sequential_1/xception_1/block10_sepconv3_bn_1/batchnorm/add_1", "op": "_FusedConv2D", "input": ["StatefulPartitionedCall/sequential_1/xception_1/block10_sepconv3_1/separable_conv2d/depthwise", "StatefulPartitionedCall/sequential_1/xception_1/block10_sepconv3_1/separable_conv2d/merged_input", "StatefulPartitionedCall/sequential_1/xception_1/block10_sepconv3_bn_1/batchnorm/sub"], "device": "/device:CPU:0", "attr": {"explicit_paddings": {"list": {}}, "num_host_args": {"i": "0"}, "data_format": {"s": "TkhXQw=="}, "leakyrelu_alpha": {"f": 0.2}, "num_args": {"i": "1"}, "strides": {"list": {"i": ["1", "1", "1", "1"]}}, "epsilon": {"f": 0.0}, "dilations": {"list": {"i": ["1", "1", "1", "1"]}}, "T": {"type": "DT_FLOAT"}, "filter_format": {"s": "SFdJTw=="}, "padding": {"s": "VkFMSUQ="}, "fused_ops": {"list": {"s": ["Qmlhc0FkZA=="]}}, "use_cudnn_on_gpu": {"b": true}, "TArgs": {"list": {"type": ["DT_FLOAT"]}}}}, {"name": "StatefulPartitionedCall/sequential_1/xception_1/add_8_1/Add", "op": "AddV2", "input": ["StatefulPartitionedCall/sequential_1/xception_1/block10_sepconv3_bn_1/batchnorm/add_1", "StatefulPartitionedCall/sequential_1/xception_1/add_7_1/Add"], "attr": {"T": {"type": "DT_FLOAT"}}}, {"name": "StatefulPartitionedCall/sequential_1/xception_1/block11_sepconv1_act_1/Relu", "op": "Relu", "input": ["StatefulPartitionedCall/sequential_1/xception_1/add_8_1/Add"], "attr": {"T": {"type": "DT_FLOAT"}}}, {"name": "StatefulPartitionedCall/sequential_1/xception_1/block11_sepconv1_1/separable_conv2d/depthwise", "op": "DepthwiseConv2dNative", "input": ["StatefulPartitionedCall/sequential_1/xception_1/block11_sepconv1_act_1/Relu", "StatefulPartitionedCall/sequential_1/xception_1/block11_sepconv1_1/separable_conv2d/ReadVariableOp"], "attr": {"padding": {"s": "U0FNRQ=="}, "explicit_paddings": {"list": {}}, "data_format": {"s": "TkhXQw=="}, "dilations": {"list": {"i": ["1", "1", "1", "1"]}}, "strides": {"list": {"i": ["1", "1", "1", "1"]}}, "T": {"type": "DT_FLOAT"}}}, {"name": "StatefulPartitionedCall/sequential_1/xception_1/block11_sepconv2_act_1/Relu", "op": "_FusedConv2D", "input": ["StatefulPartitionedCall/sequential_1/xception_1/block11_sepconv1_1/separable_conv2d/depthwise", "StatefulPartitionedCall/sequential_1/xception_1/block11_sepconv1_1/separable_conv2d/merged_input", "StatefulPartitionedCall/sequential_1/xception_1/block11_sepconv1_bn_1/batchnorm/sub"], "device": "/device:CPU:0", "attr": {"fused_ops": {"list": {"s": ["Qmlhc0FkZA==", "UmVsdQ=="]}}, "dilations": {"list": {"i": ["1", "1", "1", "1"]}}, "data_format": {"s": "TkhXQw=="}, "filter_format": {"s": "SFdJTw=="}, "num_args": {"i": "1"}, "padding": {"s": "VkFMSUQ="}, "TArgs": {"list": {"type": ["DT_FLOAT"]}}, "explicit_paddings": {"list": {}}, "use_cudnn_on_gpu": {"b": true}, "strides": {"list": {"i": ["1", "1", "1", "1"]}}, "epsilon": {"f": 0.0}, "T": {"type": "DT_FLOAT"}, "leakyrelu_alpha": {"f": 0.2}, "num_host_args": {"i": "0"}}}, {"name": "StatefulPartitionedCall/sequential_1/xception_1/block11_sepconv2_1/separable_conv2d/depthwise", "op": "DepthwiseConv2dNative", "input": ["StatefulPartitionedCall/sequential_1/xception_1/block11_sepconv2_act_1/Relu", "StatefulPartitionedCall/sequential_1/xception_1/block11_sepconv2_1/separable_conv2d/ReadVariableOp"], "attr": {"data_format": {"s": "TkhXQw=="}, "strides": {"list": {"i": ["1", "1", "1", "1"]}}, "padding": {"s": "U0FNRQ=="}, "T": {"type": "DT_FLOAT"}, "explicit_paddings": {"list": {}}, "dilations": {"list": {"i": ["1", "1", "1", "1"]}}}}, {"name": "StatefulPartitionedCall/sequential_1/xception_1/block11_sepconv3_act_1/Relu", "op": "_FusedConv2D", "input": ["StatefulPartitionedCall/sequential_1/xception_1/block11_sepconv2_1/separable_conv2d/depthwise", "StatefulPartitionedCall/sequential_1/xception_1/block11_sepconv2_1/separable_conv2d/merged_input", "StatefulPartitionedCall/sequential_1/xception_1/block11_sepconv2_bn_1/batchnorm/sub"], "device": "/device:CPU:0", "attr": {"dilations": {"list": {"i": ["1", "1", "1", "1"]}}, "T": {"type": "DT_FLOAT"}, "filter_format": {"s": "SFdJTw=="}, "TArgs": {"list": {"type": ["DT_FLOAT"]}}, "explicit_paddings": {"list": {}}, "epsilon": {"f": 0.0}, "num_args": {"i": "1"}, "data_format": {"s": "TkhXQw=="}, "strides": {"list": {"i": ["1", "1", "1", "1"]}}, "leakyrelu_alpha": {"f": 0.2}, "fused_ops": {"list": {"s": ["Qmlhc0FkZA==", "UmVsdQ=="]}}, "num_host_args": {"i": "0"}, "use_cudnn_on_gpu": {"b": true}, "padding": {"s": "VkFMSUQ="}}}, {"name": "StatefulPartitionedCall/sequential_1/xception_1/block11_sepconv3_1/separable_conv2d/depthwise", "op": "DepthwiseConv2dNative", "input": ["StatefulPartitionedCall/sequential_1/xception_1/block11_sepconv3_act_1/Relu", "StatefulPartitionedCall/sequential_1/xception_1/block11_sepconv3_1/separable_conv2d/ReadVariableOp"], "attr": {"strides": {"list": {"i": ["1", "1", "1", "1"]}}, "data_format": {"s": "TkhXQw=="}, "explicit_paddings": {"list": {}}, "dilations": {"list": {"i": ["1", "1", "1", "1"]}}, "padding": {"s": "U0FNRQ=="}, "T": {"type": "DT_FLOAT"}}}, {"name": "StatefulPartitionedCall/sequential_1/xception_1/block11_sepconv3_bn_1/batchnorm/add_1", "op": "_FusedConv2D", "input": ["StatefulPartitionedCall/sequential_1/xception_1/block11_sepconv3_1/separable_conv2d/depthwise", "StatefulPartitionedCall/sequential_1/xception_1/block11_sepconv3_1/separable_conv2d/merged_input", "StatefulPartitionedCall/sequential_1/xception_1/block11_sepconv3_bn_1/batchnorm/sub"], "device": "/device:CPU:0", "attr": {"num_host_args": {"i": "0"}, "padding": {"s": "VkFMSUQ="}, "use_cudnn_on_gpu": {"b": true}, "TArgs": {"list": {"type": ["DT_FLOAT"]}}, "strides": {"list": {"i": ["1", "1", "1", "1"]}}, "num_args": {"i": "1"}, "epsilon": {"f": 0.0}, "T": {"type": "DT_FLOAT"}, "data_format": {"s": "TkhXQw=="}, "explicit_paddings": {"list": {}}, "leakyrelu_alpha": {"f": 0.2}, "filter_format": {"s": "SFdJTw=="}, "dilations": {"list": {"i": ["1", "1", "1", "1"]}}, "fused_ops": {"list": {"s": ["Qmlhc0FkZA=="]}}}}, {"name": "StatefulPartitionedCall/sequential_1/xception_1/add_9_1/Add", "op": "AddV2", "input": ["StatefulPartitionedCall/sequential_1/xception_1/block11_sepconv3_bn_1/batchnorm/add_1", "StatefulPartitionedCall/sequential_1/xception_1/add_8_1/Add"], "attr": {"T": {"type": "DT_FLOAT"}}}, {"name": "StatefulPartitionedCall/sequential_1/xception_1/block12_sepconv1_act_1/Relu", "op": "Relu", "input": ["StatefulPartitionedCall/sequential_1/xception_1/add_9_1/Add"], "attr": {"T": {"type": "DT_FLOAT"}}}, {"name": "StatefulPartitionedCall/sequential_1/xception_1/block12_sepconv1_1/separable_conv2d/depthwise", "op": "DepthwiseConv2dNative", "input": ["StatefulPartitionedCall/sequential_1/xception_1/block12_sepconv1_act_1/Relu", "StatefulPartitionedCall/sequential_1/xception_1/block12_sepconv1_1/separable_conv2d/ReadVariableOp"], "attr": {"padding": {"s": "U0FNRQ=="}, "T": {"type": "DT_FLOAT"}, "data_format": {"s": "TkhXQw=="}, "explicit_paddings": {"list": {}}, "dilations": {"list": {"i": ["1", "1", "1", "1"]}}, "strides": {"list": {"i": ["1", "1", "1", "1"]}}}}, {"name": "StatefulPartitionedCall/sequential_1/xception_1/block12_sepconv2_act_1/Relu", "op": "_FusedConv2D", "input": ["StatefulPartitionedCall/sequential_1/xception_1/block12_sepconv1_1/separable_conv2d/depthwise", "StatefulPartitionedCall/sequential_1/xception_1/block12_sepconv1_1/separable_conv2d/merged_input", "StatefulPartitionedCall/sequential_1/xception_1/block12_sepconv1_bn_1/batchnorm/sub"], "device": "/device:CPU:0", "attr": {"use_cudnn_on_gpu": {"b": true}, "data_format": {"s": "TkhXQw=="}, "explicit_paddings": {"list": {}}, "filter_format": {"s": "SFdJTw=="}, "TArgs": {"list": {"type": ["DT_FLOAT"]}}, "strides": {"list": {"i": ["1", "1", "1", "1"]}}, "T": {"type": "DT_FLOAT"}, "fused_ops": {"list": {"s": ["Qmlhc0FkZA==", "UmVsdQ=="]}}, "epsilon": {"f": 0.0}, "leakyrelu_alpha": {"f": 0.2}, "num_host_args": {"i": "0"}, "dilations": {"list": {"i": ["1", "1", "1", "1"]}}, "padding": {"s": "VkFMSUQ="}, "num_args": {"i": "1"}}}, {"name": "StatefulPartitionedCall/sequential_1/xception_1/block12_sepconv2_1/separable_conv2d/depthwise", "op": "DepthwiseConv2dNative", "input": ["StatefulPartitionedCall/sequential_1/xception_1/block12_sepconv2_act_1/Relu", "StatefulPartitionedCall/sequential_1/xception_1/block12_sepconv2_1/separable_conv2d/ReadVariableOp"], "attr": {"dilations": {"list": {"i": ["1", "1", "1", "1"]}}, "strides": {"list": {"i": ["1", "1", "1", "1"]}}, "data_format": {"s": "TkhXQw=="}, "explicit_paddings": {"list": {}}, "T": {"type": "DT_FLOAT"}, "padding": {"s": "U0FNRQ=="}}}, {"name": "StatefulPartitionedCall/sequential_1/xception_1/block12_sepconv3_act_1/Relu", "op": "_FusedConv2D", "input": ["StatefulPartitionedCall/sequential_1/xception_1/block12_sepconv2_1/separable_conv2d/depthwise", "StatefulPartitionedCall/sequential_1/xception_1/block12_sepconv2_1/separable_conv2d/merged_input", "StatefulPartitionedCall/sequential_1/xception_1/block12_sepconv2_bn_1/batchnorm/sub"], "device": "/device:CPU:0", "attr": {"num_host_args": {"i": "0"}, "explicit_paddings": {"list": {}}, "strides": {"list": {"i": ["1", "1", "1", "1"]}}, "padding": {"s": "VkFMSUQ="}, "T": {"type": "DT_FLOAT"}, "dilations": {"list": {"i": ["1", "1", "1", "1"]}}, "num_args": {"i": "1"}, "use_cudnn_on_gpu": {"b": true}, "epsilon": {"f": 0.0}, "data_format": {"s": "TkhXQw=="}, "filter_format": {"s": "SFdJTw=="}, "leakyrelu_alpha": {"f": 0.2}, "fused_ops": {"list": {"s": ["Qmlhc0FkZA==", "UmVsdQ=="]}}, "TArgs": {"list": {"type": ["DT_FLOAT"]}}}}, {"name": "StatefulPartitionedCall/sequential_1/xception_1/block12_sepconv3_1/separable_conv2d/depthwise", "op": "DepthwiseConv2dNative", "input": ["StatefulPartitionedCall/sequential_1/xception_1/block12_sepconv3_act_1/Relu", "StatefulPartitionedCall/sequential_1/xception_1/block12_sepconv3_1/separable_conv2d/ReadVariableOp"], "attr": {"explicit_paddings": {"list": {}}, "T": {"type": "DT_FLOAT"}, "data_format": {"s": "TkhXQw=="}, "strides": {"list": {"i": ["1", "1", "1", "1"]}}, "dilations": {"list": {"i": ["1", "1", "1", "1"]}}, "padding": {"s": "U0FNRQ=="}}}, {"name": "StatefulPartitionedCall/sequential_1/xception_1/block12_sepconv3_bn_1/batchnorm/add_1", "op": "_FusedConv2D", "input": ["StatefulPartitionedCall/sequential_1/xception_1/block12_sepconv3_1/separable_conv2d/depthwise", "StatefulPartitionedCall/sequential_1/xception_1/block12_sepconv3_1/separable_conv2d/merged_input", "StatefulPartitionedCall/sequential_1/xception_1/block12_sepconv3_bn_1/batchnorm/sub"], "device": "/device:CPU:0", "attr": {"dilations": {"list": {"i": ["1", "1", "1", "1"]}}, "data_format": {"s": "TkhXQw=="}, "padding": {"s": "VkFMSUQ="}, "leakyrelu_alpha": {"f": 0.2}, "T": {"type": "DT_FLOAT"}, "num_args": {"i": "1"}, "num_host_args": {"i": "0"}, "epsilon": {"f": 0.0}, "fused_ops": {"list": {"s": ["Qmlhc0FkZA=="]}}, "filter_format": {"s": "SFdJTw=="}, "strides": {"list": {"i": ["1", "1", "1", "1"]}}, "TArgs": {"list": {"type": ["DT_FLOAT"]}}, "use_cudnn_on_gpu": {"b": true}, "explicit_paddings": {"list": {}}}}, {"name": "StatefulPartitionedCall/sequential_1/xception_1/add_10_1/Add", "op": "AddV2", "input": ["StatefulPartitionedCall/sequential_1/xception_1/block12_sepconv3_bn_1/batchnorm/add_1", "StatefulPartitionedCall/sequential_1/xception_1/add_9_1/Add"], "attr": {"T": {"type": "DT_FLOAT"}}}, {"name": "StatefulPartitionedCall/sequential_1/xception_1/batch_normalization_3_1/batchnorm/add_1", "op": "_FusedConv2D", "input": ["StatefulPartitionedCall/sequential_1/xception_1/add_10_1/Add", "StatefulPartitionedCall/sequential_1/xception_1/conv2d_3_1/convolution/merged_input", "StatefulPartitionedCall/sequential_1/xception_1/batch_normalization_3_1/batchnorm/sub"], "device": "/device:CPU:0", "attr": {"filter_format": {"s": "SFdJTw=="}, "TArgs": {"list": {"type": ["DT_FLOAT"]}}, "explicit_paddings": {"list": {}}, "T": {"type": "DT_FLOAT"}, "dilations": {"list": {"i": ["1", "1", "1", "1"]}}, "use_cudnn_on_gpu": {"b": true}, "num_args": {"i": "1"}, "strides": {"list": {"i": ["1", "2", "2", "1"]}}, "padding": {"s": "U0FNRQ=="}, "epsilon": {"f": 0.0}, "fused_ops": {"list": {"s": ["Qmlhc0FkZA=="]}}, "num_host_args": {"i": "0"}, "leakyrelu_alpha": {"f": 0.2}, "data_format": {"s": "TkhXQw=="}}}, {"name": "StatefulPartitionedCall/sequential_1/xception_1/block13_sepconv1_act_1/Relu", "op": "Relu", "input": ["StatefulPartitionedCall/sequential_1/xception_1/add_10_1/Add"], "attr": {"T": {"type": "DT_FLOAT"}}}, {"name": "StatefulPartitionedCall/sequential_1/xception_1/block13_sepconv1_1/separable_conv2d/depthwise", "op": "DepthwiseConv2dNative", "input": ["StatefulPartitionedCall/sequential_1/xception_1/block13_sepconv1_act_1/Relu", "StatefulPartitionedCall/sequential_1/xception_1/block13_sepconv1_1/separable_conv2d/ReadVariableOp"], "attr": {"explicit_paddings": {"list": {}}, "dilations": {"list": {"i": ["1", "1", "1", "1"]}}, "padding": {"s": "U0FNRQ=="}, "data_format": {"s": "TkhXQw=="}, "strides": {"list": {"i": ["1", "1", "1", "1"]}}, "T": {"type": "DT_FLOAT"}}}, {"name": "StatefulPartitionedCall/sequential_1/xception_1/block13_sepconv2_act_1/Relu", "op": "_FusedConv2D", "input": ["StatefulPartitionedCall/sequential_1/xception_1/block13_sepconv1_1/separable_conv2d/depthwise", "StatefulPartitionedCall/sequential_1/xception_1/block13_sepconv1_1/separable_conv2d/merged_input", "StatefulPartitionedCall/sequential_1/xception_1/block13_sepconv1_bn_1/batchnorm/sub"], "device": "/device:CPU:0", "attr": {"T": {"type": "DT_FLOAT"}, "num_args": {"i": "1"}, "leakyrelu_alpha": {"f": 0.2}, "use_cudnn_on_gpu": {"b": true}, "explicit_paddings": {"list": {}}, "strides": {"list": {"i": ["1", "1", "1", "1"]}}, "filter_format": {"s": "SFdJTw=="}, "dilations": {"list": {"i": ["1", "1", "1", "1"]}}, "padding": {"s": "VkFMSUQ="}, "epsilon": {"f": 0.0}, "num_host_args": {"i": "0"}, "fused_ops": {"list": {"s": ["Qmlhc0FkZA==", "UmVsdQ=="]}}, "data_format": {"s": "TkhXQw=="}, "TArgs": {"list": {"type": ["DT_FLOAT"]}}}}, {"name": "StatefulPartitionedCall/sequential_1/xception_1/block13_sepconv2_1/separable_conv2d/depthwise", "op": "DepthwiseConv2dNative", "input": ["StatefulPartitionedCall/sequential_1/xception_1/block13_sepconv2_act_1/Relu", "StatefulPartitionedCall/sequential_1/xception_1/block13_sepconv2_1/separable_conv2d/ReadVariableOp"], "attr": {"data_format": {"s": "TkhXQw=="}, "explicit_paddings": {"list": {}}, "padding": {"s": "U0FNRQ=="}, "strides": {"list": {"i": ["1", "1", "1", "1"]}}, "T": {"type": "DT_FLOAT"}, "dilations": {"list": {"i": ["1", "1", "1", "1"]}}}}, {"name": "StatefulPartitionedCall/sequential_1/xception_1/block13_sepconv2_bn_1/batchnorm/add_1", "op": "_FusedConv2D", "input": ["StatefulPartitionedCall/sequential_1/xception_1/block13_sepconv2_1/separable_conv2d/depthwise", "StatefulPartitionedCall/sequential_1/xception_1/block13_sepconv2_1/separable_conv2d/merged_input", "StatefulPartitionedCall/sequential_1/xception_1/block13_sepconv2_bn_1/batchnorm/sub"], "device": "/device:CPU:0", "attr": {"padding": {"s": "VkFMSUQ="}, "use_cudnn_on_gpu": {"b": true}, "dilations": {"list": {"i": ["1", "1", "1", "1"]}}, "num_host_args": {"i": "0"}, "strides": {"list": {"i": ["1", "1", "1", "1"]}}, "leakyrelu_alpha": {"f": 0.2}, "TArgs": {"list": {"type": ["DT_FLOAT"]}}, "explicit_paddings": {"list": {}}, "fused_ops": {"list": {"s": ["Qmlhc0FkZA=="]}}, "epsilon": {"f": 0.0}, "num_args": {"i": "1"}, "filter_format": {"s": "SFdJTw=="}, "data_format": {"s": "TkhXQw=="}, "T": {"type": "DT_FLOAT"}}}, {"name": "StatefulPartitionedCall/sequential_1/xception_1/block13_pool_1/MaxPool2d", "op": "MaxPool", "input": ["StatefulPartitionedCall/sequential_1/xception_1/block13_sepconv2_bn_1/batchnorm/add_1"], "attr": {"data_format": {"s": "TkhXQw=="}, "strides": {"list": {"i": ["1", "2", "2", "1"]}}, "T": {"type": "DT_FLOAT"}, "ksize": {"list": {"i": ["1", "3", "3", "1"]}}, "explicit_paddings": {"list": {}}, "padding": {"s": "U0FNRQ=="}}}, {"name": "StatefulPartitionedCall/sequential_1/xception_1/add_11_1/Add", "op": "AddV2", "input": ["StatefulPartitionedCall/sequential_1/xception_1/block13_pool_1/MaxPool2d", "StatefulPartitionedCall/sequential_1/xception_1/batch_normalization_3_1/batchnorm/add_1"], "attr": {"T": {"type": "DT_FLOAT"}}}, {"name": "StatefulPartitionedCall/sequential_1/xception_1/block14_sepconv1_1/separable_conv2d/depthwise", "op": "DepthwiseConv2dNative", "input": ["StatefulPartitionedCall/sequential_1/xception_1/add_11_1/Add", "StatefulPartitionedCall/sequential_1/xception_1/block14_sepconv1_1/separable_conv2d/ReadVariableOp"], "attr": {"dilations": {"list": {"i": ["1", "1", "1", "1"]}}, "T": {"type": "DT_FLOAT"}, "padding": {"s": "U0FNRQ=="}, "data_format": {"s": "TkhXQw=="}, "explicit_paddings": {"list": {}}, "strides": {"list": {"i": ["1", "1", "1", "1"]}}}}, {"name": "StatefulPartitionedCall/sequential_1/xception_1/block14_sepconv1_act_1/Relu", "op": "_FusedConv2D", "input": ["StatefulPartitionedCall/sequential_1/xception_1/block14_sepconv1_1/separable_conv2d/depthwise", "StatefulPartitionedCall/sequential_1/xception_1/block14_sepconv1_1/separable_conv2d/merged_input", "StatefulPartitionedCall/sequential_1/xception_1/block14_sepconv1_bn_1/batchnorm/sub"], "device": "/device:CPU:0", "attr": {"T": {"type": "DT_FLOAT"}, "strides": {"list": {"i": ["1", "1", "1", "1"]}}, "data_format": {"s": "TkhXQw=="}, "fused_ops": {"list": {"s": ["Qmlhc0FkZA==", "UmVsdQ=="]}}, "filter_format": {"s": "SFdJTw=="}, "leakyrelu_alpha": {"f": 0.2}, "explicit_paddings": {"list": {}}, "num_host_args": {"i": "0"}, "epsilon": {"f": 0.0}, "dilations": {"list": {"i": ["1", "1", "1", "1"]}}, "padding": {"s": "VkFMSUQ="}, "use_cudnn_on_gpu": {"b": true}, "num_args": {"i": "1"}, "TArgs": {"list": {"type": ["DT_FLOAT"]}}}}, {"name": "StatefulPartitionedCall/sequential_1/xception_1/block14_sepconv2_1/separable_conv2d/depthwise", "op": "DepthwiseConv2dNative", "input": ["StatefulPartitionedCall/sequential_1/xception_1/block14_sepconv1_act_1/Relu", "StatefulPartitionedCall/sequential_1/xception_1/block14_sepconv2_1/separable_conv2d/ReadVariableOp"], "attr": {"T": {"type": "DT_FLOAT"}, "explicit_paddings": {"list": {}}, "dilations": {"list": {"i": ["1", "1", "1", "1"]}}, "strides": {"list": {"i": ["1", "1", "1", "1"]}}, "data_format": {"s": "TkhXQw=="}, "padding": {"s": "U0FNRQ=="}}}, {"name": "StatefulPartitionedCall/sequential_1/xception_1/block14_sepconv2_act_1/Relu", "op": "_FusedConv2D", "input": ["StatefulPartitionedCall/sequential_1/xception_1/block14_sepconv2_1/separable_conv2d/depthwise", "StatefulPartitionedCall/sequential_1/xception_1/block14_sepconv2_1/separable_conv2d/merged_input", "StatefulPartitionedCall/sequential_1/xception_1/block14_sepconv2_bn_1/batchnorm/sub"], "device": "/device:CPU:0", "attr": {"padding": {"s": "VkFMSUQ="}, "use_cudnn_on_gpu": {"b": true}, "filter_format": {"s": "SFdJTw=="}, "strides": {"list": {"i": ["1", "1", "1", "1"]}}, "data_format": {"s": "TkhXQw=="}, "TArgs": {"list": {"type": ["DT_FLOAT"]}}, "fused_ops": {"list": {"s": ["Qmlhc0FkZA==", "UmVsdQ=="]}}, "num_args": {"i": "1"}, "explicit_paddings": {"list": {}}, "leakyrelu_alpha": {"f": 0.2}, "dilations": {"list": {"i": ["1", "1", "1", "1"]}}, "epsilon": {"f": 0.0}, "num_host_args": {"i": "0"}, "T": {"type": "DT_FLOAT"}}}, {"name": "StatefulPartitionedCall/sequential_1/conv2d_4_1/Relu", "op": "_FusedConv2D", "input": ["StatefulPartitionedCall/sequential_1/xception_1/block14_sepconv2_act_1/Relu", "StatefulPartitionedCall/sequential_1/conv2d_4_1/convolution/ReadVariableOp", "StatefulPartitionedCall/sequential_1/conv2d_4_1/Squeeze"], "device": "/device:CPU:0", "attr": {"data_format": {"s": "TkhXQw=="}, "epsilon": {"f": 0.0}, "explicit_paddings": {"list": {}}, "dilations": {"list": {"i": ["1", "1", "1", "1"]}}, "padding": {"s": "U0FNRQ=="}, "T": {"type": "DT_FLOAT"}, "num_host_args": {"i": "0"}, "strides": {"list": {"i": ["1", "1", "1", "1"]}}, "filter_format": {"s": "SFdJTw=="}, "use_cudnn_on_gpu": {"b": true}, "fused_ops": {"list": {"s": ["Qmlhc0FkZA==", "UmVsdQ=="]}}, "TArgs": {"list": {"type": ["DT_FLOAT"]}}, "leakyrelu_alpha": {"f": 0.2}, "num_args": {"i": "1"}}}, {"name": "StatefulPartitionedCall/sequential_1/batch_normalization_4_1/batchnorm/mul_1", "op": "Mul", "input": ["StatefulPartitionedCall/sequential_1/conv2d_4_1/Relu", "StatefulPartitionedCall/sequential_1/batch_normalization_4_1/batchnorm/mul"], "attr": {"T": {"type": "DT_FLOAT"}}}, {"name": "StatefulPartitionedCall/sequential_1/batch_normalization_4_1/batchnorm/add_1", "op": "AddV2", "input": ["StatefulPartitionedCall/sequential_1/batch_normalization_4_1/batchnorm/mul_1", "StatefulPartitionedCall/sequential_1/batch_normalization_4_1/batchnorm/sub"], "attr": {"T": {"type": "DT_FLOAT"}}}, {"name": "StatefulPartitionedCall/sequential_1/max_pooling2d_1/MaxPool2d", "op": "MaxPool", "input": ["StatefulPartitionedCall/sequential_1/batch_normalization_4_1/batchnorm/add_1"], "attr": {"ksize": {"list": {"i": ["1", "2", "2", "1"]}}, "T": {"type": "DT_FLOAT"}, "strides": {"list": {"i": ["1", "2", "2", "1"]}}, "explicit_paddings": {"list": {}}, "padding": {"s": "VkFMSUQ="}, "data_format": {"s": "TkhXQw=="}}}, {"name": "StatefulPartitionedCall/sequential_1/flatten_1/Reshape", "op": "Reshape", "input": ["StatefulPartitionedCall/sequential_1/max_pooling2d_1/MaxPool2d", "StatefulPartitionedCall/sequential_1/flatten_1/Reshape/shape"], "attr": {"Tshape": {"type": "DT_INT32"}, "T": {"type": "DT_FLOAT"}}}, {"name": "StatefulPartitionedCall/sequential_1/dense_1/Relu", "op": "_FusedMatMul", "input": ["StatefulPartitionedCall/sequential_1/flatten_1/Reshape", "StatefulPartitionedCall/sequential_1/dense_1/Cast/ReadVariableOp", "StatefulPartitionedCall/sequential_1/dense_1/BiasAdd/ReadVariableOp"], "device": "/device:CPU:0", "attr": {"transpose_b": {"b": false}, "num_args": {"i": "1"}, "T": {"type": "DT_FLOAT"}, "leakyrelu_alpha": {"f": 0.2}, "epsilon": {"f": 0.0}, "transpose_a": {"b": false}, "fused_ops": {"list": {"s": ["Qmlhc0FkZA==", "UmVsdQ=="]}}}}, {"name": "StatefulPartitionedCall/sequential_1/dense_1_2/BiasAdd", "op": "_FusedMatMul", "input": ["StatefulPartitionedCall/sequential_1/dense_1/Relu", "StatefulPartitionedCall/sequential_1/dense_1_2/Cast/ReadVariableOp", "StatefulPartitionedCall/sequential_1/dense_1_2/BiasAdd/ReadVariableOp"], "device": "/device:CPU:0", "attr": {"transpose_a": {"b": false}, "T": {"type": "DT_FLOAT"}, "transpose_b": {"b": false}, "fused_ops": {"list": {"s": ["Qmlhc0FkZA=="]}}, "num_args": {"i": "1"}, "leakyrelu_alpha": {"f": 0.2}, "epsilon": {"f": 0.0}}}, {"name": "StatefulPartitionedCall/sequential_1/dense_1_2/Softmax", "op": "Softmax", "input": ["StatefulPartitionedCall/sequential_1/dense_1_2/BiasAdd"], "attr": {"T": {"type": "DT_FLOAT"}}}, {"name": "Identity", "op": "Identity", "input": ["StatefulPartitionedCall/sequential_1/dense_1_2/Softmax"], "attr": {"T": {"type": "DT_FLOAT"}}}], "library": {}, "versions": {"producer": 1994}}, "weightsManifest": [{"paths": ["group1-shard1of36.bin", "group1-shard2of36.bin", "group1-shard3of36.bin", "group1-shard4of36.bin", "group1-shard5of36.bin", "group1-shard6of36.bin", "group1-shard7of36.bin", "group1-shard8of36.bin", "group1-shard9of36.bin", "group1-shard10of36.bin", "group1-shard11of36.bin", "group1-shard12of36.bin", "group1-shard13of36.bin", "group1-shard14of36.bin", "group1-shard15of36.bin", "group1-shard16of36.bin", "group1-shard17of36.bin", "group1-shard18of36.bin", "group1-shard19of36.bin", "group1-shard20of36.bin", "group1-shard21of36.bin", "group1-shard22of36.bin", "group1-shard23of36.bin", "group1-shard24of36.bin", "group1-shard25of36.bin", "group1-shard26of36.bin", "group1-shard27of36.bin", "group1-shard28of36.bin", "group1-shard29of36.bin", "group1-shard30of36.bin", "group1-shard31of36.bin", "group1-shard32of36.bin", "group1-shard33of36.bin", "group1-shard34of36.bin", "group1-shard35of36.bin", "group1-shard36of36.bin"], "weights": [{"name": "StatefulPartitionedCall/sequential_1/xception_1/block13_sepconv1_1/separable_conv2d/ReadVariableOp", "shape": [3, 3, 728, 1], "dtype": "float32"}, {"name": "StatefulPartitionedCall/sequential_1/xception_1/block13_sepconv1_1/separable_conv2d/merged_input", "shape": [1, 1, 728, 728], "dtype": "float32"}, {"name": "StatefulPartitionedCall/sequential_1/xception_1/block13_sepconv1_bn_1/batchnorm/sub", "shape": [728], "dtype": "float32"}, {"name": "StatefulPartitionedCall/sequential_1/xception_1/block13_sepconv2_1/separable_conv2d/ReadVariableOp", "shape": [3, 3, 728, 1], "dtype": "float32"}, {"name": "StatefulPartitionedCall/sequential_1/xception_1/block13_sepconv2_1/separable_conv2d/merged_input", "shape": [1, 1, 728, 1024], "dtype": "float32"}, {"name": "StatefulPartitionedCall/sequential_1/xception_1/block13_sepconv2_bn_1/batchnorm/sub", "shape": [1024], "dtype": "float32"}, {"name": "StatefulPartitionedCall/sequential_1/xception_1/block12_sepconv1_1/separable_conv2d/ReadVariableOp", "shape": [3, 3, 728, 1], "dtype": "float32"}, {"name": "StatefulPartitionedCall/sequential_1/xception_1/block12_sepconv1_1/separable_conv2d/merged_input", "shape": [1, 1, 728, 728], "dtype": "float32"}, {"name": "StatefulPartitionedCall/sequential_1/xception_1/block12_sepconv1_bn_1/batchnorm/sub", "shape": [728], "dtype": "float32"}, {"name": "StatefulPartitionedCall/sequential_1/xception_1/block12_sepconv2_1/separable_conv2d/ReadVariableOp", "shape": [3, 3, 728, 1], "dtype": "float32"}, {"name": "StatefulPartitionedCall/sequential_1/xception_1/block12_sepconv2_1/separable_conv2d/merged_input", "shape": [1, 1, 728, 728], "dtype": "float32"}, {"name": "StatefulPartitionedCall/sequential_1/xception_1/block12_sepconv2_bn_1/batchnorm/sub", "shape": [728], "dtype": "float32"}, {"name": "StatefulPartitionedCall/sequential_1/xception_1/block12_sepconv3_1/separable_conv2d/ReadVariableOp", "shape": [3, 3, 728, 1], "dtype": "float32"}, {"name": "StatefulPartitionedCall/sequential_1/xception_1/block12_sepconv3_1/separable_conv2d/merged_input", "shape": [1, 1, 728, 728], "dtype": "float32"}, {"name": "StatefulPartitionedCall/sequential_1/xception_1/block12_sepconv3_bn_1/batchnorm/sub", "shape": [728], "dtype": "float32"}, {"name": "StatefulPartitionedCall/sequential_1/xception_1/block11_sepconv1_1/separable_conv2d/ReadVariableOp", "shape": [3, 3, 728, 1], "dtype": "float32"}, {"name": "StatefulPartitionedCall/sequential_1/xception_1/block11_sepconv1_1/separable_conv2d/merged_input", "shape": [1, 1, 728, 728], "dtype": "float32"}, {"name": "StatefulPartitionedCall/sequential_1/xception_1/block11_sepconv1_bn_1/batchnorm/sub", "shape": [728], "dtype": "float32"}, {"name": "StatefulPartitionedCall/sequential_1/xception_1/block11_sepconv2_1/separable_conv2d/ReadVariableOp", "shape": [3, 3, 728, 1], "dtype": "float32"}, {"name": "StatefulPartitionedCall/sequential_1/xception_1/block11_sepconv2_1/separable_conv2d/merged_input", "shape": [1, 1, 728, 728], "dtype": "float32"}, {"name": "StatefulPartitionedCall/sequential_1/xception_1/block11_sepconv2_bn_1/batchnorm/sub", "shape": [728], "dtype": "float32"}, {"name": "StatefulPartitionedCall/sequential_1/xception_1/block11_sepconv3_1/separable_conv2d/ReadVariableOp", "shape": [3, 3, 728, 1], "dtype": "float32"}, {"name": "StatefulPartitionedCall/sequential_1/xception_1/block11_sepconv3_1/separable_conv2d/merged_input", "shape": [1, 1, 728, 728], "dtype": "float32"}, {"name": "StatefulPartitionedCall/sequential_1/xception_1/block11_sepconv3_bn_1/batchnorm/sub", "shape": [728], "dtype": "float32"}, {"name": "StatefulPartitionedCall/sequential_1/xception_1/block10_sepconv1_1/separable_conv2d/ReadVariableOp", "shape": [3, 3, 728, 1], "dtype": "float32"}, {"name": "StatefulPartitionedCall/sequential_1/xception_1/block10_sepconv1_1/separable_conv2d/merged_input", "shape": [1, 1, 728, 728], "dtype": "float32"}, {"name": "StatefulPartitionedCall/sequential_1/xception_1/block10_sepconv1_bn_1/batchnorm/sub", "shape": [728], "dtype": "float32"}, {"name": "StatefulPartitionedCall/sequential_1/xception_1/block10_sepconv2_1/separable_conv2d/ReadVariableOp", "shape": [3, 3, 728, 1], "dtype": "float32"}, {"name": "StatefulPartitionedCall/sequential_1/xception_1/block10_sepconv2_1/separable_conv2d/merged_input", "shape": [1, 1, 728, 728], "dtype": "float32"}, {"name": "StatefulPartitionedCall/sequential_1/xception_1/block10_sepconv2_bn_1/batchnorm/sub", "shape": [728], "dtype": "float32"}, {"name": "StatefulPartitionedCall/sequential_1/xception_1/block10_sepconv3_1/separable_conv2d/ReadVariableOp", "shape": [3, 3, 728, 1], "dtype": "float32"}, {"name": "StatefulPartitionedCall/sequential_1/xception_1/block10_sepconv3_1/separable_conv2d/merged_input", "shape": [1, 1, 728, 728], "dtype": "float32"}, {"name": "StatefulPartitionedCall/sequential_1/xception_1/block10_sepconv3_bn_1/batchnorm/sub", "shape": [728], "dtype": "float32"}, {"name": "StatefulPartitionedCall/sequential_1/xception_1/block9_sepconv1_1/separable_conv2d/ReadVariableOp", "shape": [3, 3, 728, 1], "dtype": "float32"}, {"name": "StatefulPartitionedCall/sequential_1/xception_1/block9_sepconv1_1/separable_conv2d/merged_input", "shape": [1, 1, 728, 728], "dtype": "float32"}, {"name": "StatefulPartitionedCall/sequential_1/xception_1/block9_sepconv1_bn_1/batchnorm/sub", "shape": [728], "dtype": "float32"}, {"name": "StatefulPartitionedCall/sequential_1/xception_1/block9_sepconv2_1/separable_conv2d/ReadVariableOp", "shape": [3, 3, 728, 1], "dtype": "float32"}, {"name": "StatefulPartitionedCall/sequential_1/xception_1/block9_sepconv2_1/separable_conv2d/merged_input", "shape": [1, 1, 728, 728], "dtype": "float32"}, {"name": "StatefulPartitionedCall/sequential_1/xception_1/block9_sepconv2_bn_1/batchnorm/sub", "shape": [728], "dtype": "float32"}, {"name": "StatefulPartitionedCall/sequential_1/xception_1/block9_sepconv3_1/separable_conv2d/ReadVariableOp", "shape": [3, 3, 728, 1], "dtype": "float32"}, {"name": "StatefulPartitionedCall/sequential_1/xception_1/block9_sepconv3_1/separable_conv2d/merged_input", "shape": [1, 1, 728, 728], "dtype": "float32"}, {"name": "StatefulPartitionedCall/sequential_1/xception_1/block9_sepconv3_bn_1/batchnorm/sub", "shape": [728], "dtype": "float32"}, {"name": "StatefulPartitionedCall/sequential_1/xception_1/block8_sepconv1_1/separable_conv2d/ReadVariableOp", "shape": [3, 3, 728, 1], "dtype": "float32"}, {"name": "StatefulPartitionedCall/sequential_1/xception_1/block8_sepconv1_1/separable_conv2d/merged_input", "shape": [1, 1, 728, 728], "dtype": "float32"}, {"name": "StatefulPartitionedCall/sequential_1/xception_1/block8_sepconv1_bn_1/batchnorm/sub", "shape": [728], "dtype": "float32"}, {"name": "StatefulPartitionedCall/sequential_1/xception_1/block8_sepconv2_1/separable_conv2d/ReadVariableOp", "shape": [3, 3, 728, 1], "dtype": "float32"}, {"name": "StatefulPartitionedCall/sequential_1/xception_1/block8_sepconv2_1/separable_conv2d/merged_input", "shape": [1, 1, 728, 728], "dtype": "float32"}, {"name": "StatefulPartitionedCall/sequential_1/xception_1/block8_sepconv2_bn_1/batchnorm/sub", "shape": [728], "dtype": "float32"}, {"name": "StatefulPartitionedCall/sequential_1/xception_1/block8_sepconv3_1/separable_conv2d/ReadVariableOp", "shape": [3, 3, 728, 1], "dtype": "float32"}, {"name": "StatefulPartitionedCall/sequential_1/xception_1/block8_sepconv3_1/separable_conv2d/merged_input", "shape": [1, 1, 728, 728], "dtype": "float32"}, {"name": "StatefulPartitionedCall/sequential_1/xception_1/block8_sepconv3_bn_1/batchnorm/sub", "shape": [728], "dtype": "float32"}, {"name": "StatefulPartitionedCall/sequential_1/xception_1/block7_sepconv1_1/separable_conv2d/ReadVariableOp", "shape": [3, 3, 728, 1], "dtype": "float32"}, {"name": "StatefulPartitionedCall/sequential_1/xception_1/block7_sepconv1_1/separable_conv2d/merged_input", "shape": [1, 1, 728, 728], "dtype": "float32"}, {"name": "StatefulPartitionedCall/sequential_1/xception_1/block7_sepconv1_bn_1/batchnorm/sub", "shape": [728], "dtype": "float32"}, {"name": "StatefulPartitionedCall/sequential_1/xception_1/block7_sepconv2_1/separable_conv2d/ReadVariableOp", "shape": [3, 3, 728, 1], "dtype": "float32"}, {"name": "StatefulPartitionedCall/sequential_1/xception_1/block7_sepconv2_1/separable_conv2d/merged_input", "shape": [1, 1, 728, 728], "dtype": "float32"}, {"name": "StatefulPartitionedCall/sequential_1/xception_1/block7_sepconv2_bn_1/batchnorm/sub", "shape": [728], "dtype": "float32"}, {"name": "StatefulPartitionedCall/sequential_1/xception_1/block7_sepconv3_1/separable_conv2d/ReadVariableOp", "shape": [3, 3, 728, 1], "dtype": "float32"}, {"name": "StatefulPartitionedCall/sequential_1/xception_1/block7_sepconv3_1/separable_conv2d/merged_input", "shape": [1, 1, 728, 728], "dtype": "float32"}, {"name": "StatefulPartitionedCall/sequential_1/xception_1/block7_sepconv3_bn_1/batchnorm/sub", "shape": [728], "dtype": "float32"}, {"name": "StatefulPartitionedCall/sequential_1/xception_1/block6_sepconv1_1/separable_conv2d/ReadVariableOp", "shape": [3, 3, 728, 1], "dtype": "float32"}, {"name": "StatefulPartitionedCall/sequential_1/xception_1/block6_sepconv1_1/separable_conv2d/merged_input", "shape": [1, 1, 728, 728], "dtype": "float32"}, {"name": "StatefulPartitionedCall/sequential_1/xception_1/block6_sepconv1_bn_1/batchnorm/sub", "shape": [728], "dtype": "float32"}, {"name": "StatefulPartitionedCall/sequential_1/xception_1/block6_sepconv2_1/separable_conv2d/ReadVariableOp", "shape": [3, 3, 728, 1], "dtype": "float32"}, {"name": "StatefulPartitionedCall/sequential_1/xception_1/block6_sepconv2_1/separable_conv2d/merged_input", "shape": [1, 1, 728, 728], "dtype": "float32"}, {"name": "StatefulPartitionedCall/sequential_1/xception_1/block6_sepconv2_bn_1/batchnorm/sub", "shape": [728], "dtype": "float32"}, {"name": "StatefulPartitionedCall/sequential_1/xception_1/block6_sepconv3_1/separable_conv2d/ReadVariableOp", "shape": [3, 3, 728, 1], "dtype": "float32"}, {"name": "StatefulPartitionedCall/sequential_1/xception_1/block6_sepconv3_1/separable_conv2d/merged_input", "shape": [1, 1, 728, 728], "dtype": "float32"}, {"name": "StatefulPartitionedCall/sequential_1/xception_1/block6_sepconv3_bn_1/batchnorm/sub", "shape": [728], "dtype": "float32"}, {"name": "StatefulPartitionedCall/sequential_1/xception_1/block5_sepconv1_1/separable_conv2d/ReadVariableOp", "shape": [3, 3, 728, 1], "dtype": "float32"}, {"name": "StatefulPartitionedCall/sequential_1/xception_1/block5_sepconv1_1/separable_conv2d/merged_input", "shape": [1, 1, 728, 728], "dtype": "float32"}, {"name": "StatefulPartitionedCall/sequential_1/xception_1/block5_sepconv1_bn_1/batchnorm/sub", "shape": [728], "dtype": "float32"}, {"name": "StatefulPartitionedCall/sequential_1/xception_1/block5_sepconv2_1/separable_conv2d/ReadVariableOp", "shape": [3, 3, 728, 1], "dtype": "float32"}, {"name": "StatefulPartitionedCall/sequential_1/xception_1/block5_sepconv2_1/separable_conv2d/merged_input", "shape": [1, 1, 728, 728], "dtype": "float32"}, {"name": "StatefulPartitionedCall/sequential_1/xception_1/block5_sepconv2_bn_1/batchnorm/sub", "shape": [728], "dtype": "float32"}, {"name": "StatefulPartitionedCall/sequential_1/xception_1/block5_sepconv3_1/separable_conv2d/ReadVariableOp", "shape": [3, 3, 728, 1], "dtype": "float32"}, {"name": "StatefulPartitionedCall/sequential_1/xception_1/block5_sepconv3_1/separable_conv2d/merged_input", "shape": [1, 1, 728, 728], "dtype": "float32"}, {"name": "StatefulPartitionedCall/sequential_1/xception_1/block5_sepconv3_bn_1/batchnorm/sub", "shape": [728], "dtype": "float32"}, {"name": "StatefulPartitionedCall/sequential_1/xception_1/block4_sepconv1_1/separable_conv2d/ReadVariableOp", "shape": [3, 3, 256, 1], "dtype": "float32"}, {"name": "StatefulPartitionedCall/sequential_1/xception_1/block4_sepconv1_1/separable_conv2d/merged_input", "shape": [1, 1, 256, 728], "dtype": "float32"}, {"name": "StatefulPartitionedCall/sequential_1/xception_1/block4_sepconv1_bn_1/batchnorm/sub", "shape": [728], "dtype": "float32"}, {"name": "StatefulPartitionedCall/sequential_1/xception_1/block4_sepconv2_1/separable_conv2d/ReadVariableOp", "shape": [3, 3, 728, 1], "dtype": "float32"}, {"name": "StatefulPartitionedCall/sequential_1/xception_1/block4_sepconv2_1/separable_conv2d/merged_input", "shape": [1, 1, 728, 728], "dtype": "float32"}, {"name": "StatefulPartitionedCall/sequential_1/xception_1/block4_sepconv2_bn_1/batchnorm/sub", "shape": [728], "dtype": "float32"}, {"name": "StatefulPartitionedCall/sequential_1/xception_1/block3_sepconv1_1/separable_conv2d/ReadVariableOp", "shape": [3, 3, 128, 1], "dtype": "float32"}, {"name": "StatefulPartitionedCall/sequential_1/xception_1/block3_sepconv1_1/separable_conv2d/merged_input", "shape": [1, 1, 128, 256], "dtype": "float32"}, {"name": "StatefulPartitionedCall/sequential_1/xception_1/block3_sepconv1_bn_1/batchnorm/sub", "shape": [256], "dtype": "float32"}, {"name": "StatefulPartitionedCall/sequential_1/xception_1/block3_sepconv2_1/separable_conv2d/ReadVariableOp", "shape": [3, 3, 256, 1], "dtype": "float32"}, {"name": "StatefulPartitionedCall/sequential_1/xception_1/block3_sepconv2_1/separable_conv2d/merged_input", "shape": [1, 1, 256, 256], "dtype": "float32"}, {"name": "StatefulPartitionedCall/sequential_1/xception_1/block3_sepconv2_bn_1/batchnorm/sub", "shape": [256], "dtype": "float32"}, {"name": "StatefulPartitionedCall/sequential_1/xception_1/block2_sepconv1_1/separable_conv2d/ReadVariableOp", "shape": [3, 3, 64, 1], "dtype": "float32"}, {"name": "StatefulPartitionedCall/sequential_1/xception_1/block2_sepconv1_1/separable_conv2d/merged_input", "shape": [1, 1, 64, 128], "dtype": "float32"}, {"name": "StatefulPartitionedCall/sequential_1/xception_1/block2_sepconv1_bn_1/batchnorm/sub", "shape": [128], "dtype": "float32"}, {"name": "StatefulPartitionedCall/sequential_1/xception_1/block2_sepconv2_1/separable_conv2d/ReadVariableOp", "shape": [3, 3, 128, 1], "dtype": "float32"}, {"name": "StatefulPartitionedCall/sequential_1/xception_1/block2_sepconv2_1/separable_conv2d/merged_input", "shape": [1, 1, 128, 128], "dtype": "float32"}, {"name": "StatefulPartitionedCall/sequential_1/xception_1/block2_sepconv2_bn_1/batchnorm/sub", "shape": [128], "dtype": "float32"}, {"name": "StatefulPartitionedCall/sequential_1/xception_1/block1_conv1_1/convolution/merged_input", "shape": [3, 3, 3, 32], "dtype": "float32"}, {"name": "StatefulPartitionedCall/sequential_1/xception_1/block1_conv1_bn_1/batchnorm/sub", "shape": [32], "dtype": "float32"}, {"name": "StatefulPartitionedCall/sequential_1/xception_1/block1_conv2_1/convolution/merged_input", "shape": [3, 3, 32, 64], "dtype": "float32"}, {"name": "StatefulPartitionedCall/sequential_1/xception_1/block1_conv2_bn_1/batchnorm/sub", "shape": [64], "dtype": "float32"}, {"name": "StatefulPartitionedCall/sequential_1/xception_1/conv2d_1/convolution/merged_input", "shape": [1, 1, 64, 128], "dtype": "float32"}, {"name": "StatefulPartitionedCall/sequential_1/xception_1/batch_normalization_1/batchnorm/sub", "shape": [128], "dtype": "float32"}, {"name": "StatefulPartitionedCall/sequential_1/xception_1/conv2d_1_2/convolution/merged_input", "shape": [1, 1, 128, 256], "dtype": "float32"}, {"name": "StatefulPartitionedCall/sequential_1/xception_1/batch_normalization_1_2/batchnorm/sub", "shape": [256], "dtype": "float32"}, {"name": "StatefulPartitionedCall/sequential_1/xception_1/conv2d_2_1/convolution/merged_input", "shape": [1, 1, 256, 728], "dtype": "float32"}, {"name": "StatefulPartitionedCall/sequential_1/xception_1/batch_normalization_2_1/batchnorm/sub", "shape": [728], "dtype": "float32"}, {"name": "StatefulPartitionedCall/sequential_1/xception_1/conv2d_3_1/convolution/merged_input", "shape": [1, 1, 728, 1024], "dtype": "float32"}, {"name": "StatefulPartitionedCall/sequential_1/xception_1/batch_normalization_3_1/batchnorm/sub", "shape": [1024], "dtype": "float32"}, {"name": "StatefulPartitionedCall/sequential_1/xception_1/block14_sepconv1_1/separable_conv2d/ReadVariableOp", "shape": [3, 3, 1024, 1], "dtype": "float32"}, {"name": "StatefulPartitionedCall/sequential_1/xception_1/block14_sepconv1_1/separable_conv2d/merged_input", "shape": [1, 1, 1024, 1536], "dtype": "float32"}, {"name": "StatefulPartitionedCall/sequential_1/xception_1/block14_sepconv1_bn_1/batchnorm/sub", "shape": [1536], "dtype": "float32"}, {"name": "StatefulPartitionedCall/sequential_1/xception_1/block14_sepconv2_1/separable_conv2d/ReadVariableOp", "shape": [3, 3, 1536, 1], "dtype": "float32"}, {"name": "StatefulPartitionedCall/sequential_1/xception_1/block14_sepconv2_1/separable_conv2d/merged_input", "shape": [1, 1, 1536, 2048], "dtype": "float32"}, {"name": "StatefulPartitionedCall/sequential_1/xception_1/block14_sepconv2_bn_1/batchnorm/sub", "shape": [2048], "dtype": "float32"}, {"name": "StatefulPartitionedCall/sequential_1/conv2d_4_1/convolution/ReadVariableOp", "shape": [3, 3, 2048, 512], "dtype": "float32"}, {"name": "StatefulPartitionedCall/sequential_1/conv2d_4_1/Squeeze", "shape": [512], "dtype": "float32"}, {"name": "StatefulPartitionedCall/sequential_1/batch_normalization_4_1/batchnorm/mul", "shape": [512], "dtype": "float32"}, {"name": "StatefulPartitionedCall/sequential_1/batch_normalization_4_1/batchnorm/sub", "shape": [512], "dtype": "float32"}, {"name": "StatefulPartitionedCall/sequential_1/flatten_1/Reshape/shape", "shape": [2], "dtype": "int32"}, {"name": "StatefulPartitionedCall/sequential_1/dense_1/Cast/ReadVariableOp", "shape": [12800, 512], "dtype": "float32"}, {"name": "StatefulPartitionedCall/sequential_1/dense_1/BiasAdd/ReadVariableOp", "shape": [512], "dtype": "float32"}, {"name": "StatefulPartitionedCall/sequential_1/dense_1_2/Cast/ReadVariableOp", "shape": [512, 4], "dtype": "float32"}, {"name": "StatefulPartitionedCall/sequential_1/dense_1_2/BiasAdd/ReadVariableOp", "shape": [4], "dtype": "float32"}]}]}